app/src/main/assets/model.tflite (tflite, 15708 bytes, 5 tensors)

sequential_3/lstm_3/Read_2/ReadVariableOp f4 [64]
000000 72 d2 4a 3e 73 6f d7 3d a7 93 80 3e 99 48 c2 3e
       0.19806841 0.10519304 0.2511265 0.37946013
000010 c4 df 69 3e 31 80 66 3e b6 59 42 3e 59 b3 23 3e
       0.22839266 0.22509839 0.18979535 0.15986384
000020 33 7c 85 bd ea 5c 34 3e 89 c1 a3 3e 7b 42 2e 3e
       -0.0651783 0.17613569 0.31983593 0.17017548
000030 e5 a2 b4 3e d0 72 85 3e b3 b2 76 3e a7 90 ec 3d
       0.3528053 0.26064157 0.24091606 0.11551028
000040 a8 ee 86 3f ec 5e 89 3f 34 cd a2 3f f7 ee ac 3f
       1.0541582 1.0732093 1.2718873 1.3510426
000050 37 c6 90 3f f1 a2 63 3f 45 40 83 3f 73 77 8b 3f
       1.131049 0.88920504 1.0253989 1.0895828
000060 a9 96 7b 3f eb 35 99 3f 13 cf 9b 3f 5b fe 9c 3f
       0.98276764 1.196958 1.2172569 1.2265123
000070 0f 1c 51 3f 68 82 ac 3f b6 bd 9d 3f 11 1d 8b 3f
       0.8168344 1.3477297 1.232352 1.0868245
000080 4c 20 f7 bd cc 66 1d 3e ee 8a 66 3e 13 33 3c be
       -0.12066707 0.15371245 0.22513935 -0.18378858
000090 78 b0 4e be 1f b5 10 3e de 99 8a be af 0a 90 be
       -0.20184505 0.14131592 -0.27070516 -0.2813315
0000a0 54 38 7c be 69 fa ef 3d c0 53 35 3e 60 4f 67 be
       -0.24630862 0.11717684 0.1770773 -0.22588873
0000b0 15 c7 2c be d2 38 7a 3e 75 c1 37 be 23 e3 65 3e
       -0.16872819 0.24435738 -0.17944892 0.22449927
0000c0 ce 10 58 3e 40 28 dd 3d 2b c5 84 3e 54 ef c6 3e
       0.2110016 0.10798693 0.25931677 0.38854468
0000d0 ac 2d 77 3e f8 97 79 3e b5 d2 5d 3e 1c a0 04 3e
       0.24138516 0.24374378 0.2166241 0.12951702
0000e0 e2 8e 90 bd 66 7d 3a 3e ad 2b a7 3e 13 d9 36 3e
       -0.07058503 0.18211898 0.3265051 0.17856245
0000f0 c7 3f ae 3e 9a 7e 8b 3e 53 bb 75 3e 6c e3 f5 3d
       0.34033033 0.27245027 0.2399724 0.12006268

sequential_3/dense_3/MatMul f4 [1, 80]
000000 94 1f de be ea 3f 50 3e a2 5a c9 3e ef c2 a1 be
       -0.43383467 0.20336881 0.3932696 -0.31594035
000010 59 db f9 bd 20 ef 10 3d 48 0d 04 be 48 e6 82 3d
       -0.1220004 0.035384297 -0.12895691 0.06391579
000020 67 30 96 bd 6a 25 87 3e a8 17 76 bd 77 b6 e4 bd
       -0.07333451 0.26395732 -0.060081154 -0.11167615
000030 46 e2 cc be c5 80 0a 3f cf 03 93 be 5f da 07 be
       -0.40016383 0.54102737 -0.28713843 -0.13266896
000040 0a 5c 05 3e 89 fb 43 3e 64 0b fb 3e 15 5d 27 bf
       0.13023391 0.19138922 0.49032128 -0.65376407
000050 68 a3 53 bd 89 2e 21 bd 76 6b d9 be 7a 35 58 be
       -0.05166951 -0.03935102 -0.424648 -0.2111415
000060 6f 15 99 bd c6 d1 31 3c 0c d7 f8 3e 60 a8 fe bd
       -0.07474791 0.010853237 0.48601568 -0.12434459
000070 cf 98 de be 48 bf 7c 3e 60 e4 94 be 9f df 12 3e
       -0.4347596 0.24682343 -0.29080486 0.14343117
000080 d7 8b 35 be 5f 45 16 3e 62 bc d6 3e 76 12 1b bf
       -0.17729126 0.146749 0.419406 -0.60575044
000090 0e 65 0d bf af 04 15 3f f8 f8 d2 bc 49 38 0b be
       -0.5523232 0.5821027 -0.025753483 -0.1359569
0000a0 ad fe 95 be 69 a5 4b 3e 3a 82 c2 3e 90 cd a0 be
       -0.29295865 0.19887318 0.3798998 -0.31406832
0000b0 cd 28 c2 3e 0b 38 02 3f dd 9b dd be d6 c8 1d 3e
       0.37921754 0.50866765 -0.43282977 0.15408644
0000c0 a9 a4 c4 be 68 3e 1e 3e 22 4f 92 3e 2a 1c 10 bf
       -0.38406876 0.15453494 0.28576 -0.56292975
0000d0 9a b2 8c be 57 cb 2b bc 00 4c 3d bc 3f 60 d1 bd
       -0.27480012 -0.010485492 -0.011553764 -0.102234356
0000e0 56 ac 94 3c 6e a0 29 3d c2 99 82 3e 24 f2 a9 be
       0.018148582 0.041412763 0.25507933 -0.3319255
0000f0 ca ff 69 be d2 69 00 3f cf d3 59 be 63 35 38 3e
       -0.22851482 0.5016147 -0.21272205 0.17989115
000100 d3 3c 7c 3c 9a bf 34 bd 1b e6 91 3e 7e a5 08 bf
       0.015395361 -0.044128038 0.2849587 -0.5337752
000110 a1 79 a4 be 52 35 31 bd 65 db 78 be 42 42 92 be
       -0.32124045 -0.04326374 -0.24302442 -0.28566176
000120 0b a4 4d be eb b8 ac be 2e 0c b2 3e 90 34 19 bf
       -0.20082109 -0.3373483 0.34774917 -0.5984583
000130 e2 99 32 be 23 66 b0 3e 39 c5 38 be db 7c f1 3e
       -0.17441514 0.34452924 -0.18043984 0.4716557

sequential_3/lstm_3/Read_2/ReadVariableOp1 f4 [64]
000000 72 d2 4a 3e 73 6f d7 3d a7 93 80 3e 99 48 c2 3e
       0.19806841 0.10519304 0.2511265 0.37946013
000010 c4 df 69 3e 31 80 66 3e b6 59 42 3e 59 b3 23 3e
       0.22839266 0.22509839 0.18979535 0.15986384
000020 33 7c 85 bd ea 5c 34 3e 89 c1 a3 3e 7b 42 2e 3e
       -0.0651783 0.17613569 0.31983593 0.17017548
000030 e5 a2 b4 3e d0 72 85 3e b3 b2 76 3e a7 90 ec 3d
       0.3528053 0.26064157 0.24091606 0.11551028
000040 a8 ee 86 3f ec 5e 89 3f 34 cd a2 3f f7 ee ac 3f
       1.0541582 1.0732093 1.2718873 1.3510426
000050 37 c6 90 3f f1 a2 63 3f 45 40 83 3f 73 77 8b 3f
       1.131049 0.88920504 1.0253989 1.0895828
000060 a9 96 7b 3f eb 35 99 3f 13 cf 9b 3f 5b fe 9c 3f
       0.98276764 1.196958 1.2172569 1.2265123
000070 0f 1c 51 3f 68 82 ac 3f b6 bd 9d 3f 11 1d 8b 3f
       0.8168344 1.3477297 1.232352 1.0868245
000080 4c 20 f7 bd cc 66 1d 3e ee 8a 66 3e 13 33 3c be
       -0.12066707 0.15371245 0.22513935 -0.18378858
000090 78 b0 4e be 1f b5 10 3e de 99 8a be af 0a 90 be
       -0.20184505 0.14131592 -0.27070516 -0.2813315
0000a0 54 38 7c be 69 fa ef 3d c0 53 35 3e 60 4f 67 be
       -0.24630862 0.11717684 0.1770773 -0.22588873
0000b0 15 c7 2c be d2 38 7a 3e 75 c1 37 be 23 e3 65 3e
       -0.16872819 0.24435738 -0.17944892 0.22449927
0000c0 ce 10 58 3e 40 28 dd 3d 2b c5 84 3e 54 ef c6 3e
       0.2110016 0.10798693 0.25931677 0.38854468
0000d0 ac 2d 77 3e f8 97 79 3e b5 d2 5d 3e 1c a0 04 3e
       0.24138516 0.24374378 0.2166241 0.12951702
0000e0 e2 8e 90 bd 66 7d 3a 3e ad 2b a7 3e 13 d9 36 3e
       -0.07058503 0.18211898 0.3265051 0.17856245
0000f0 c7 3f ae 3e 9a 7e 8b 3e 53 bb 75 3e 6c e3 f5 3d
       0.34033033 0.27245027 0.2399724 0.12006268

while/MatMul_11 f4 [64, 16]
000000 1a 30 bb 3e f8 e4 ba be 36 21 82 be 56 32 3b 3e
       0.36560136 -0.36502814 -0.25415963 0.1828092
000010 08 38 68 bc b1 d8 9e be 00 21 ba be ca 4f 2a be
       -0.014173515 -0.31024697 -0.36353302 -0.16632
000020 3a 8c d5 bb da cd d9 bd 34 56 95 be b8 2a 28 be
       -0.0065169604 -0.10634966 -0.2916733 -0.16422546
000030 f3 ac d7 bd 6a 4c c5 be c1 2f 80 bd ef 86 86 3d
       -0.10531034 -0.38534862 -0.06259108 0.06568705
000040 b2 d0 b8 3e c0 20 1e be a9 17 ed be 97 0e 38 3e
       0.36096722 -0.1544218 -0.46307114 0.17974316
000050 a4 7b 30 be 22 8f 3e be ef ad 6e be c7 22 8d bc
       -0.17234665 -0.18609288 -0.23308538 -0.017228497
000060 48 76 87 3e 0b a8 07 bf 9e 3c 1c bf 91 2f 08 3e
       0.2645743 -0.5299079 -0.61029994 0.13299395
000070 ff ff 2f 3e 4d e4 21 bf 59 86 ca 3d 6c 35 57 be
       0.17187499 -0.63238984 0.09888906 -0.21016473
000080 16 c2 c1 3e 92 43 bd be 9f e6 29 bf 0a bb e9 3e
       0.37843388 -0.36965615 -0.66367525 0.45650512
000090 fb 13 9f be 88 da 3d be 03 dd 73 be c9 80 ab be
       -0.3106993 -0.18540394 -0.23814778 -0.33496693
0000a0 21 6a ad be be 0e 98 be 50 9b fc be 79 35 26 bd
       -0.33870032 -0.29698747 -0.49337244 -0.04057834
0000b0 8e 55 08 bd 17 94 25 be de 14 0f be 68 98 e5 3e
       -0.033284716 -0.16169773 -0.13972804 0.4484284
0000c0 43 d3 85 3e 7a 0c 5e be 6c bc 08 bf 05 b8 8f 3e
       0.26137742 -0.21684447 -0.5341251 0.28070083
0000d0 33 e7 dc be c9 1e f5 3d 1d b9 d6 be bd 15 02 bf
       -0.4314514 0.119687624 -0.41938105 -0.5081442
0000e0 20 42 03 bf ac d4 a7 be 89 d8 b6 be fc 30 d1 be
       -0.51272774 -0.32779443 -0.35712078 -0.40857685
0000f0 ac fa ad be 99 b9 24 be 43 68 5f be 08 78 ec 3e
       -0.3398031 -0.16086425 -0.21817116 0.46185327
000100 e0 0b 3d 3d a6 b5 b9 3d 86 53 db 3e 34 56 36 bf
       0.046153903 0.0906785 0.4283716 -0.71225286
000110 44 3d bd be 32 94 e1 3e 3b 6d 9f be 46 5e 80 ba
       -0.36960804 0.44058377 -0.31138024 -0.0009793721
000120 a1 fe c9 be 05 5c 19 be 07 96 53 3e e8 c4 0f bf
       -0.3945208 -0.14976509 0.206627 -0.5615983
000130 6a ef 0e bf 22 2e 5c 3e 27 38 9b be c2 dc a2 3d
       -0.55834067 0.21501973 -0.30316278 0.079522625
000140 da 35 45 3d 14 1d 31 be 5a b1 b9 3e bd e4 b6 be
       0.04814706 -0.17296249 0.3626812 -0.35721388
000150 02 42 a2 be 18 e8 0b 3e bd 56 b0 be 0c 2e 4b be
       -0.31690985 0.13662755 -0.34441176 -0.19841784
000160 ab 7a e7 bd b2 2d 8f 3e 70 ad 3b bd 47 51 84 be
       -0.11302694 0.2796455 -0.0458197 -0.2584326
000170 78 4d 9b be 6a 90 e2 3d 08 17 40 be 71 a3 d5 bd
       -0.3033254 0.11062701 -0.18758786 -0.104315646
000180 f2 82 b0 bd e8 e9 84 bd ed 69 37 3e 3c 47 5b be
       -0.08618726 -0.064899266 0.17911501 -0.21413893
000190 0a 0e 95 be 9a 19 01 3f ae 4a 36 be bf af fc bd
       -0.29112273 0.5042969 -0.17801926 -0.123382084
0001a0 21 01 9e 3d 9b d4 d5 3d 46 ab 8b 3c b9 40 bc be
       0.07715059 0.10440942 0.017049443 -0.3676813
0001b0 09 1d 03 3e f7 d3 aa 3e 0f 43 d9 be de 92 5b 3e
       0.12804045 0.3336484 -0.42433974 0.21442744
0001c0 dd f1 e6 be a8 1d c0 bc 53 2f 95 3e 06 73 b6 be
       -0.45106402 -0.023451641 0.29137668 -0.3563463
0001d0 52 1f bf be 96 60 97 3e a4 94 dc bd 98 5e 11 3e
       -0.37328583 0.29565877 -0.107705384 0.14196241
0001e0 df 4a 99 be 05 06 54 bc 0d de eb 3e 2e 09 31 be
       -0.29939935 -0.012940888 0.4606785 -0.17288658
0001f0 07 3e b6 bd 22 dd fb 3e 03 36 e4 be e2 58 3c 3e
       -0.088985495 0.49192148 -0.44572458 0.18393281
000200 79 53 08 bf 66 f9 b1 3e 43 66 af 3e 93 1e 53 be
       -0.5325237 0.34760588 0.34257707 -0.20617132
000210 27 c6 d8 3d 78 c5 55 3e 69 0e 63 3e 26 e2 e6 3c
       0.105846696 0.2087611 0.22173466 0.028184008
000220 9e 73 aa 3c 48 56 5a 3e 1e 6c be 3e 72 cb 28 be
       0.020807084 0.21321976 0.37191862 -0.16483858
000230 4d bd c3 be 2e 18 dd 3e 01 97 b7 be 79 56 93 3d
       -0.38230363 0.4318251 -0.35857394 0.07194228
000240 61 13 10 bc b6 ad fe 3d b7 fa 16 3e ac b3 e8 be
       -0.008793683 0.124354765 0.14744078 -0.4544958
000250 76 08 54 be 67 3a e4 3e 3c 0a 39 3e 12 3c 53 be
       -0.20706353 0.44575807 0.1807031 -0.20628384
000260 9f 2c 4c be 11 8e 1e be 80 52 f2 bc 14 16 94 3d
       -0.19938897 -0.15483882 -0.029580355 0.072307736
000270 72 35 85 3d 88 2d b3 bc 90 97 91 be 89 78 dc 3e
       0.065043345 -0.021872297 -0.28435946 0.4306071
000280 8f 77 e3 3e 9d ef b1 be 70 da b8 be fe c5 b6 3e
       0.44427153 -0.34753123 -0.36104155 0.3569793
000290 ee 14 b9 be e5 9c 35 3e 83 96 ad be 6b 80 ca be
       -0.3614878 0.17735632 -0.33903894 -0.395511
0002a0 aa a7 6c be d7 0f ed be ce 34 16 bf e6 c0 4f be
       -0.23110834 -0.46301147 -0.58674324 -0.20288429
0002b0 44 9d 2a be e4 f6 bf be 8a 64 80 bd 8b 7e b6 3e
       -0.16661555 -0.3749305 -0.06269176 0.3564342
0002c0 2a ca 84 be 57 44 e6 bd be fc f6 ba 3b b8 bb be
       -0.2593549 -0.112435035 -0.0018843634 -0.36663994
0002d0 78 1b 89 be d8 9e b1 3d 6e 32 57 be 62 25 14 be
       -0.2677877 0.08672875 -0.21015331 -0.14467385
0002e0 80 4e 4d be 4e 8e 2a ba d3 a9 4b bd 18 de 1d be
       -0.20049477 -0.00065061904 -0.049722504 -0.15416753
0002f0 41 a7 6e be 2f 0e 35 3e 7b d0 d2 be 89 00 dd 3e
       -0.2330599 0.17681192 -0.41174683 0.4316447
000300 01 4e c6 3e 22 46 4a bd 59 c7 ff bc bf db 3e be
       0.38731387 -0.04938329 -0.031222986 -0.18638514
000310 ac c9 b9 be ff 12 cd 3e 0f be ef be 59 6d 00 bf
       -0.36286676 0.40053555 -0.4682469 -0.5016685
000320 ef 89 c1 bd 62 cc cf be c6 56 aa bd 7f 4c bd be
       -0.09450137 -0.4058562 -0.08317332 -0.36972424
000330 13 ae 22 be cc ca e3 3d 89 26 1b bf 8b c2 93 3e
       -0.15886717 0.11122665 -0.60605675 0.28859362
000340 3a 44 91 3e 34 9b 38 be 08 3c b3 be c4 30 c8 3e
       0.28372365 -0.18027955 -0.35006738 0.39099705
000350 b7 f0 24 be f5 1e 31 3e ca 9d e1 be c6 14 ae be
       -0.1610745 0.17296965 -0.44065696 -0.34000224
000360 81 fc f3 bd 9b 20 3d bd 22 ea 92 be 9c 95 47 be
       -0.11913396 -0.046173673 -0.28694254 -0.19490665
000370 70 24 8e be 2b a5 16 be 80 a4 a4 be 51 e3 2e 3e
       -0.27762175 -0.14711444 -0.32156754 0.17078902
000380 06 a0 ac bd a0 f3 f9 3d ab 22 ba 3e d0 d6 28 be
       -0.084289595 0.12204671 0.36354575 -0.16488194
000390 57 a1 8a be 0a 02 50 3e c4 4b 36 be cf dc d3 be
       -0.27076218 0.20313278 -0.1780234 -0.413794
0003a0 1b dd b4 bd 4e 14 d1 3d 41 e0 7c 3d 19 a0 a4 be
       -0.08831235 0.10208951 0.061737303 -0.32153395
0003b0 52 47 d5 bd 57 f0 06 3e c6 61 bd be 58 31 f9 bb
       -0.10413994 0.1317762 -0.36988658 -0.007604759
0003c0 45 21 43 3d 24 51 9e 39 45 15 21 3d da a9 cb be
       0.04763915 0.00030196563 0.039326925 -0.39778024
0003d0 bb 5b 85 be 1e eb 25 3e 4a fc 3d be 0a 6b 97 3d
       -0.26046547 0.16202971 -0.18553272 0.07393463
0003e0 5d 7a d1 bd 1c d6 96 3e d7 cf 8d 3e 1d 70 bc be
       -0.10228417 0.29460227 0.27697632 -0.36804286
0003f0 41 bb 9b 3d 03 98 2e 3e 7c 5d 7c be 29 cd 79 bd
       0.07604075 0.17050175 -0.24645036 -0.06098667

while/MatMul f4 [64, 6]
000000 6e 0b 0e 3e a2 fd cd 3d 73 21 06 3e 52 1f 0f 3e
       0.13871548 0.10058142 0.13098697 0.13976792
000010 fb 7d d2 3d 80 68 cd 3d 98 b6 aa 3d 55 cf f2 3d
       0.10277935 0.100296974 0.08335608 0.11855952
000020 1e 33 d0 3d 96 6b 2a 3e 62 d3 b7 3d 40 95 42 3d
       0.10166 0.16642603 0.08975865 0.047505617
000030 21 4f c8 3d 70 15 28 3e 37 37 08 3e 66 40 4c 3e
       0.09780718 0.16414428 0.13302313 0.19946441
000040 11 67 11 3e 02 84 d8 3d b0 93 6d 3d 76 5e 8f 3d
       0.14199473 0.105720535 0.058002174 0.07000439
000050 77 c1 b7 3d 1c 3f 2e 3e e7 cb cd 3d fc 61 93 3d
       0.08972447 0.17016262 0.10048657 0.071964234
000060 98 2f 83 3b 3a be 8a bc 7e f3 18 bd 64 fd 27 bd
       0.0040034764 -0.01693641 -0.037341587 -0.041013137
000070 88 d9 27 bc 09 0a 12 3c f8 c0 2c bc f4 98 68 bc
       -0.010244735 0.008913525 -0.010544054 -0.014196623
000080 28 c9 27 3c 59 00 00 bc 85 ae 06 bd f0 73 8a bc
       0.0102408305 -0.007812583 -0.03288128 -0.016900986
000090 dc e1 12 bd 44 0e 83 bc 26 eb 1d bd ce 97 5e bd
       -0.035859928 -0.015998013 -0.038554333 -0.05434399
0000a0 70 75 6f bc 62 9b a6 bc 5c c5 a2 bc c5 ba 7e bc
       -0.014615402 -0.020337764 -0.019869499 -0.015547459
0000b0 64 5e 18 bd 21 03 6d bd a6 d3 c6 bc 98 e1 c6 bc
       -0.037199393 -0.057864312 -0.024270844 -0.024277493
0000c0 97 be d2 bc 80 5e 92 bc 11 6c 00 bd ee b6 72 bd
       -0.025725646 -0.017867327 -0.03135306 -0.059256487
0000d0 5b da e5 bc 5a 8d 9e bc 81 e5 ab 3d c6 0b d8 3d
       -0.028058222 -0.019354511 0.08393384 0.105491206
0000e0 14 eb a0 3d 55 d1 ce 3d 51 29 8e 3d 0d 05 15 3d
       0.078573376 0.10098521 0.06941474 0.03638177
0000f0 58 64 76 3d 18 26 ab 3d a8 e0 bc 3d 2a 48 fe 3d
       0.06015429 0.08356875 0.09222537 0.12416108
000100 cd ee a3 3d 05 7a ac 3d 2e 06 89 ba 20 01 a5 3c
       0.08004532 0.08421711 -0.0010454112 0.020142138
000110 17 09 79 3c a1 ab 28 bd cf 7b 06 3d 95 7d 70 3c
       0.015199921 -0.041179303 0.032832917 0.014678379
000120 82 eb 83 ba 4a 38 e2 3b 07 1f 55 3b b7 c9 96 bc
       -0.0010064694 0.006903683 0.0032519714 -0.018406732
000130 00 6c 0f 3c e0 8d 85 3b 85 3b 3c 3e 8b 37 03 3e
       0.008753777 0.0040757507 0.1838208 0.12814157
000140 cd b2 65 3e b9 b6 4c 3e bc 68 27 3e b0 0c 2f 3e
       0.22431488 0.19991578 0.16348547 0.17094684
000150 82 e1 61 3b ee d4 f4 bc 07 c1 bd 3b 83 8d bb bc
       0.0034466689 -0.029886689 0.005790833 -0.022894626
000160 d9 90 0c bd 0b a5 db bb bb 8b 48 bc 9c e1 9d bc
       -0.034317825 -0.0067030243 -0.012240346 -0.019272618
000170 b8 51 f5 bc 75 1e 39 bd ad 0b 18 bc ca b0 26 bc
       -0.029946193 -0.04519506 -0.0092801275 -0.010173986
000180 ad fe e6 3a 7f ca 38 bc 3f 9b 0a 3d 36 11 e7 3c
       0.0017623507 -0.011278748 0.03383946 0.028206449
000190 b9 79 08 3d c4 b6 c0 3c 02 be a3 3a 70 2c fa bc
       0.03331921 0.02352465 0.001249254 -0.030538768
0001a0 92 f2 60 3c 55 2f 15 3c 1d 90 e9 3c 09 ad 94 3c
       0.013729708 0.009105523 0.028511101 0.018148916
0001b0 9a 92 74 3a 5e c8 fa bc b2 24 7c 3c 58 ec 9e 3c
       0.00093297067 -0.03061312 0.015389608 0.019399807
0001c0 5a 15 f9 3c 35 47 07 3d a1 47 65 bc 8d df 76 bd
       0.030405689 0.033026893 -0.013994128 -0.06027179
0001d0 7d fa 1c bc 7e af cd bc 90 01 a7 bc 5b 50 00 3c
       -0.009581205 -0.025108095 -0.020386487 0.007831658
0001e0 73 25 7f bc ae a0 bc bb 62 47 9f bc cd 81 e0 bc
       -0.015572893 -0.005756459 -0.019443218 -0.027405644
0001f0 d1 fc 09 bd a5 c4 31 bd 3b ed 3f bc e0 29 54 bc
       -0.03368837 -0.043400425 -0.011714275 -0.012949437
000200 4a 7a bb 3b 9e 99 2b 3b 14 46 b5 ba 4a 32 ba 3b
       0.005721365 0.0026184092 -0.0013830089 0.0056822645
000210 d1 19 96 bc b2 37 c0 bb 63 f1 c7 bc 5a ca e9 bc
       -0.018322857 -0.0058660144 -0.024407094 -0.028538872
000220 ef d8 bf bc 11 2d 0e bd 78 18 78 bc 9d 44 23 bb
       -0.023418872 -0.034710947 -0.015142553 -0.0024912723
000230 b8 30 8f bc 6a 72 99 bc 77 bf 35 bc b5 bd e5 bc
       -0.017479286 -0.018731315 -0.011093012 -0.02804456
000240 a0 bc 89 bb c1 21 4e bb af 1e 58 bc 6e 15 46 bb
       -0.004203394 -0.0031453224 -0.013190909 -0.0030225175
000250 5b b2 3c bc 02 3a 84 bc 93 82 6c bb fc 98 cb bb
       -0.011517133 -0.016140942 -0.003608857 -0.0062133055
000260 11 b6 11 3c dd 3e 9e 3b eb 91 8e 3c c8 03 a1 3b
       0.008893506 0.004829271 0.017403563 0.004913781
000270 9c 18 ae bb ba 3a a2 bc b3 63 3c 3c 54 e2 51 3c
       -0.0053129923 -0.019803394 0.0114983795 0.0128103085
000280 50 ba 5c 3c 56 a2 74 3c 8e 6c bd bb bf f5 20 3c
       0.013472155 0.014931282 -0.005780763 0.009824215
000290 ed 7a e7 bc ce e3 8e bc 04 ad d3 bc 6f 3a 9b bc
       -0.028256858 -0.01744261 -0.025839336 -0.018948762
0002a0 92 22 d1 bb e2 d1 89 3b 24 5d 39 bc ca 1f 15 bc
       -0.006382295 0.004205928 -0.01131371 -0.009101817
0002b0 4d 57 4f bc 7a 5f 98 bc 7e da 7c bc 85 25 b6 3c
       -0.0126550915 -0.018600214 -0.015432952 0.022234688
0002c0 8e 8b 00 3d c1 27 d7 3c 1b 82 31 3d 3f 2e 18 3d
       0.03138309 0.026264073 0.04333697 0.03715348
0002d0 df 34 92 bc a4 89 eb bb 8a 60 96 bb 90 25 02 bc
       -0.017847477 -0.007188039 -0.004589145 -0.007943526
0002e0 a7 8a 37 bc 72 e0 2f bc 25 cb cb bc c4 22 a5 ba
       -0.011202491 -0.010734664 -0.02487714 -0.0012598862
0002f0 b9 bb db bc 60 8b 14 bd ae 66 b5 bc 5f bc 39 bd
       -0.026822912 -0.03626573 -0.022143688 -0.04534566
000300 0a af cb bd 22 c5 f9 3d a9 36 01 3e b6 21 8e 3e
       -0.099454954 0.12195803 0.12618507 0.27760094
000310 bf 2a 5e 3e e6 41 0c be 6f 7b 2f be 40 88 85 bc
       0.21695994 -0.13697013 -0.1713693 -0.01630032
000320 4b cd 39 be 5e d0 18 bc ca a2 45 be e7 cb 15 be
       -0.1814472 -0.009327022 -0.1930038 -0.14628564
000330 d8 75 99 be 4d c7 a5 3d 37 a7 ed bd ea e9 3a bd
       -0.2997272 0.08094654 -0.11604159 -0.045633234
000340 0e bb 86 be a4 33 0a bb 10 67 57 3e 08 eb 99 bb
       -0.26314586 -0.002108791 0.21035409 -0.0046972074
000350 74 16 b9 3d 98 ab 47 bd 6b 25 67 3e 1b db 61 3c
       0.09037486 -0.04874763 0.22572868 0.013785149
000360 fa 13 02 3c c4 0b c5 3d 30 bf af 3c 7b f9 4d bd
       0.007939333 0.09621385 0.02145347 -0.05028675
000370 77 bd 9c 3c ef 47 6b bd 66 ba a5 3c fc e7 32 be
       0.019133313 -0.057441648 0.020230483 -0.17471308
000380 63 a2 ed bd e2 fb 34 bc 63 31 0a be 16 97 cf 3d
       -0.116032384 -0.011046382 -0.13495402 0.10136239
000390 06 ca f2 3d 2e 19 04 be 3b 1b 3d bd f8 60 d6 bb
       0.11854939 -0.1290023 -0.046168547 -0.0065423213
0003a0 61 12 34 3d 4a bb 77 3d 98 91 4f bd 77 21 7b bd
       0.04396284 0.060481347 -0.05067596 -0.06131121
0003b0 e4 06 b2 bc bb 97 5c bd 4e c3 2b bd 6b e4 b4 bc
       -0.021731801 -0.05385564 -0.041934304 -0.022081574
0003c0 b6 8b 20 bd e5 50 0b 3d 88 9d be bc 35 ca 33 bd
       -0.03919574 0.034012694 -0.023268476 -0.04389401
0003d0 f3 5a ab bc 89 df d9 bc 98 fa 59 be ec b3 66 be
       -0.020917391 -0.026595848 -0.21287 -0.22529572
0003e0 d6 01 27 bd 73 c4 0b be 2e 6a b0 ba f2 8e 15 3e
       -0.040773235 -0.13649158 -0.0013459378 0.1460531
0003f0 ff 6f 32 be ca 38 0d ba 18 d1 94 bd 04 68 c5 bc
       -0.17425536 -0.00053871854 -0.07266444 -0.02409745
