app/src/main/ml/model.tflite (tflite, 818316 bytes, 20 tensors)

sequential/conv1d/BiasAdd/ReadVariableOp f4 [128]
-0.01753296 -0.023227952 0.031892437 -0.042809933 -0.06821804 -0.02870422 -0.013999292 0.037045658
0.0025816972 -0.02432955 -0.044464067 0.03542349 -0.009947433 -0.10763478 -0.046055015 0.013784255
-0.004789961 -0.012531555 -0.035502117 0.025106037 -0.035484776 -0.027188871 0.003140825 -0.094246656
-0.07484414 0.006348426 -0.086715996 -0.028573513 -0.001467006 0.008846058 0.0010330044 -0.017240606
0.04909748 -0.1206151 0.0119539695 -0.073254414 -0.016997544 0.012804642 -0.008752366 -0.024468226
-0.013393958 -0.0319647 -0.00025937308 -0.06408973 0.05650678 -0.05499446 0.015253958 -0.08802972
0.008960289 -0.079713956 -0.06050482 0.0058377944 -0.107108064 -0.037919357 0.01302181 -0.07593757
0.0037609106 -0.009217366 -0.02921401 -0.013079294 -0.0794941 -0.029577693 -0.034360886 -0.0569585
-0.028560527 -0.05642021 -0.06530487 -0.036362182 -0.075471714 0.012544382 -0.032336906 0.03274651
0.017064428 0.029275607 -0.007672009 0.008807812 -0.071506634 -0.0033593874 -0.11907799 -0.13951753
-0.069430366 -0.040879343 -0.015443529 -0.017410012 -0.039848816 -0.032581385 -0.12659158 0.01667184
-0.063207425 -0.001185715 0.010843916 -0.110780224 -0.042030424 -0.028069863 -0.008820079 0.00596819
-0.00829137 0.005960569 0.033983108 -0.022888673 0.03773386 0.008581871 -0.08368429 0.010723911
0.012226144 -0.009945555 -0.07526403 -0.043282628 -0.030574478 0.010258338 -0.050394457 -0.04169704
-0.0059328615 -0.05316011 0.061666872 -0.0548542 -0.032629583 -0.024942372 0.021781512 -0.006299531
0.010135043 -0.028040404 0.0032199968 -0.06742239 -0.08859214 -0.11777731 -0.10059269 -0.063138306
00000000: 48a1 8fbc 8c48 bebc a5a1 023d 7859 2fbd
00000010: e6b5 8bbd 1d25 ebbc 495d 65bc 30bd 173d
00000020: b131 293b c44e c7bc f41f 36bd 3918 113d
00000030: 8ffa 22bc a06f dcbd 2fa4 3cbd 5bd7 613c
00000040: 1bf5 9cbb 2751 4dbc ab6a 11bd 2dab cd3c
00000050: 7c58 11bd 32bb debc 4dd6 4d3b 6404 c1bd
00000060: e247 99bd 7506 d03b 2898 b1bd 0013 eabc
00000070: 8e48 c0ba 0eef 103c e065 873a 2c3c 8dbc
00000080: 701a 493d 0d05 f7bd 95da 433c 6906 96bd
00000090: 6f3e 8bbc 90ca 513c 1566 0fbc 9771 c8bc
000000a0: 5572 5bbc 6bed 02bd 77fc 87b9 7a41 83bd
000000b0: a773 673d df41 61bd bdeb 793c ed48 b4bd
000000c0: 2dce 123c 1241 a3bd e7d3 77bd f84a bf3b
000000d0: 795b dbbd 5451 1bbd 6e59 553c 2885 9bbd
000000e0: 9c79 763b 6f04 17bc 3852 efbc 894a 56bc
000000f0: cdcd a2bd eb4c f2bc 00be 0cbd 514d 69bd
00000100: c4f7 e9bc e118 67bd 8fbe 85bd 83f0 14bd
00000110: ea90 9abd f486 4d3c b473 04bd 3421 063d
00000120: b3ca 8b3c 66d3 ef3c 7a65 fbbb a44e 103c
00000130: 1272 92bd 2b29 5cbb 29df f3bd afdd 0ebe
00000140: 8231 8ebd 1971 27bd db06 7dbc 719f 8ebc
00000150: 8338 23bd 0f74 05bd 39a1 01be 6293 883c
00000160: e572 81bd fe69 9bba aeaa 313c bee0 e2bd
00000170: 1828 2cbd c5f2 e5bc 1882 10bc ce90 c33b
00000180: 87d8 07bc e050 c33b df31 0b3d 0781 bbbc
00000190: d28e 1a3d fa9a 0c3c ab62 abbd 58b3 2f3c
000001a0: 2a50 483c aef2 22bc 0724 9abd 2049 31bd
000001b0: 5477 fabc 9712 283c 6b6a 4ebd 84ca 2abd
000001c0: 7368 c2bb 6abe 59bd 6796 7c3d ccae 60bd
000001d0: 99a6 05bd f253 ccbc 246f b23c 4c6c cebb
000001e0: 740d 263c fdb4 e5bc 9506 533b c014 8abd
000001f0: cc6f b5bd 3b35 f1bd 8a03 cebd a84e 81bd

sequential/conv1d_1/BiasAdd/ReadVariableOp f4 [128]
0.013233088 -0.05245279 -0.053795803 -0.016708426 -0.09349861 -0.003810475 -0.0007176201 -0.034956824
-0.052179966 -0.046379127 0.04357029 0.05152108 -0.035323877 0.08053485 -0.022275666 -0.035635807
0.023502493 0.0828908 0.010935906 0.036869414 0.010007301 -0.040076658 0.002012843 -0.0749264
-0.06366514 -0.024479749 -0.025493007 0.06066581 -0.07038159 0.0950556 0.02010709 -0.03762909
-0.026947783 -0.103535034 -0.027711596 -0.05935399 -0.00052858295 0.016027506 -0.003814304 -0.07993695
-0.031165633 -0.08391877 -0.07965973 -0.0035580422 0.053111088 -0.03057792 -8.3729115e-05 0.02220097
0.1132642 0.036159657 0.008372292 -0.0034813571 0.05171681 -0.013158045 0.017640341 -0.061555013
0.00036900793 -0.023804462 0.04533737 0.1380203 -0.060450073 -0.08185634 -0.016497737 -0.09533748
0.06068464 -0.014021351 0.002279485 -0.058603548 0.036813874 0.011387086 -0.12708855 -0.023787685
0.017640337 -0.069863155 -0.07285839 0.01469307 -0.034630485 0.030317374 -0.09555134 -0.031230165
0.01076307 -0.0358233 -0.039114263 -0.011446706 -0.027783727 -0.006833508 -0.013816846 -0.062106017
0.09611565 0.032064922 -0.05456995 0.016066944 0.008247478 -0.061990563 0.038411442 0.028830457
0.016709298 0.009777001 -0.13691093 0.018434823 -0.04325898 -0.120353 0.023560882 0.004716544
0.037786912 -0.04082556 -0.040440883 0.076563485 0.018470306 0.043893542 0.033411957 0.037900273
0.0047755735 -0.093717955 -0.036350243 0.022789033 0.0766239 -0.0030641959 -0.011971359 -0.06297551
0.022812862 -0.0070047104 0.037422735 -0.021904608 -0.031400077 -0.025342485 -0.033095993 -0.013696284
00000000: 98cf 583c bdd8 56bd fd58 5cbd 1ce0 88bc
00000010: 337c bfbd 2ab9 79bb ab1e 3cba e32e 0fbd
00000020: a9ba 55bd 0af8 3dbd c376 323d c507 533d
00000030: c5af 10bd 75ef a43d 757b b6bc daf6 11bd
00000040: 4d88 c03c a7c2 a93d 842c 333c 6204 173d
00000050: aaf5 233c 6c27 24bd e7e9 033b 0373 99bd
00000060: de62 82bd c189 c8bc b6d6 d0bc b67c 783d
00000070: 3924 90bd 83ac c23d a0b7 a43c f620 1abd
00000080: 99c1 dcbc 2d0a d4bd 6e03 e3bc 2b1d 73bd
00000090: 9a90 0aba 1e4c 833c 67f9 79bb fcb5 a3bd
000000a0: 124f ffbc 9bdd abbd a424 a3bd 0b2e 69bb
000000b0: 038b 593d 8c7e fabc ba97 afb8 cfde b53c
000000c0: 10f7 e73d 261c 143d f02b 093c 7b27 64bb
000000d0: 01d5 533d d794 57bc 7a82 903c 1c21 7cbd
000000e0: 6877 c139 9301 c3bc aeb3 393d 3255 0d3e
000000f0: 7f9a 77bd 4ca4 a7bd 4326 87bc 4c40 c3bd
00000100: 7590 783d cfb9 65bc 6a63 153b 460a 70bd
00000110: 25ca 163d e690 3a3c 8023 02be 64de c2bc
00000120: 7882 903c 6a14 8fbd c836 95bd 34bb 703c
00000130: b2d8 0dbd 245c f83c 6cb0 c3bd 67d6 ffbc
00000140: 9657 303c 74bb 12bd 4736 20bd f78a 3bbc
00000150: b39a e3bc 9feb dfbb 0d60 62bc e162 7ebd
00000160: 48d8 c43d 8256 033d bd84 5fbd d39e 833c
00000170: 6e20 073c d1e9 7dbd 5155 1d3d da2d ec3c
00000180: f0e1 883c b72f 203c 6132 0cbe a004 973c
00000190: 5430 31bd a27b f6bd c002 c13c 3d8d 9a3b
000001a0: 73c6 1a3d b438 27bd 57a5 25bd 51cd 9c3d
000001b0: 0a4f 973c b7c9 333d fada 083d 513d 1b3d
000001c0: 6a7c 9c3b 33ef bfbd fee3 14bd 11b0 ba3c
000001d0: feec 9c3d add0 48bb 8523 44bc 4ef9 80bd
000001e0: 0ae2 ba3c c587 e5bb 9548 193d 4b71 b3bc
000001f0: 5e9d 00bd 0b9b cfbc aa8f 07bd 6166 60bc

sequential/conv1d/Conv1D f4 [128, 1, 3, 6]
-0.00084310217 -0.043243494 0.04825181 0.07830376 -0.036778696 0.010863776 -0.036099933 0.038199898
-0.030993143 -0.013427751 0.1407421 0.10022861 0.08591837 -0.09332669 0.17759277 -0.10708788
0.04451307 0.022576602 0.07151985 0.053694725 -0.062550806 0.008365519 0.10855629 -0.09224552
-0.065179676 -0.14624344 0.015483272 -0.1161902 -0.0077558537 0.050879985 0.10807955 0.06561109
0.08747397 -0.036315195 -0.120649606 -0.014884205 0.09642779 0.072642274 0.04010551 -0.08492463
-0.024351502 0.047387157 0.1392635 -0.15517679 0.024415333 -0.020394852 0.067679584 0.040950716
0.12601925 -0.113377966 0.055542555 -0.062427476 0.048565462 0.052149743 -0.06611035 0.12908982
-0.030835088 -0.014363499 -0.051605817 0.1076998 -0.16621716 -0.0039867526 0.07483485 0.041337017
-0.1302802 0.008237643 -0.07976689 -0.025186945 -0.014310072 0.14594498 -0.14121911 0.07816345
0.1497206 -0.016577285 0.038017962 -0.0023717037 -0.09265496 -0.042873994 0.06974089 -0.0790148
0.093116835 0.04735727 0.10373208 0.023762172 -0.06413103 -0.04633012 -0.05305943 -0.046488076
-0.0092674885 0.022563014 0.008251805 0.03496614 -0.006981855 -0.07883079 0.09889371 0.13160656
-0.12802668 0.027310772 -0.09176803 0.10013561 -0.05712246 -0.042421307 -0.08351188 -0.029677378
-0.12271647 -0.1073447 0.12171941 0.052130543 -0.08744648 -0.025076795 0.18226185 0.051588893
0.04497428 0.013186592 0.13197371 -0.056100134 -0.11398173 -0.04979003 -0.10214577 -0.09379108
-0.05029307 -0.013108265 -0.01199729 -0.10430264 -0.024858084 -0.026806854 -0.0034559434 0.10430823
-0.01378172 0.11026594 -0.040910736 -0.0012235421 -0.009988566 0.04671214 0.11317008 -0.020090336
-0.020411571 -0.009557624 0.031054623 0.034726147 0.09738194 -0.0112007875 -0.13877451 0.08317558
0.023678899 0.07045001 0.0022394331 -0.09087809 0.030801225 -0.022040661 0.066058986 -0.05827202
-0.017816996 0.06899934 -0.17644633 -0.003960868 -0.069110684 -0.08369813 0.1162302 0.02024096
-0.18637913 -0.030605856 0.02181418 0.10101633 0.064912535 -0.07604585 -0.08769407 0.06674799
0.09684547 -0.018117694 0.08610158 0.095331185 -0.117362574 -0.12943126 0.088558 -0.13780685
0.025780592 0.081781626 0.030446695 0.105563276 0.122389264 0.03178365 -0.018953338 0.109241165
-0.11603605 -0.12470881 0.08945257 0.074749716 -0.09621338 0.008748048 -0.001876694 0.097104095
-0.015152627 -0.063013114 -0.014790747 -0.03157715 -0.0346697 0.049102172 0.02455798 -0.010479252
-0.06043954 0.04597242 0.035149343 0.08816514 -0.04418803 0.048835535 -0.13162085 0.051921025
-0.090963915 -0.09193098 -0.12908809 0.08425174 0.029703077 -0.03426428 -0.013693744 -0.018313242
0.031857207 -0.12950598 0.07060485 -0.04809925 0.10980443 0.026282573 -0.088421755 -0.099248365
-0.043460242 0.10037076 -0.08321707 -0.02711451 -0.03247747 -0.04422554 0.101753205 0.0077319494
-0.03403642 -0.07985523 0.022686403 -0.12827732 0.027064187 -0.05072376 0.041344922 0.060245734
0.092995875 -0.084650345 0.18026955 0.07996966 0.09047658 -0.021337861 0.07743064 -0.069061
0.04351954 -0.07771841 0.04104573 0.024485804 -0.11895783 -0.016936619 0.12098086 -0.005340722
00000000: a103 5dba 1720 31bd b1a3 453d b95d a03d
00000010: 42a5 16bd fbfd 313c 86dd 13bd 7f77 1c3d
00000020: 55e5 fdbc 1200 5cbc b21e 103e a844 cd3d
00000030: f8f5 af3d 1022 bfbd e1da 353e e450 dbbd
00000040: 5653 363d 91f2 b83c 0079 923d 00ef 5b3d
00000050: a31a 80bd 880f 093c c352 de3d 38eb bcbd
00000060: ec7c 85bd d7c0 15be 8dad 7d3c 21f5 edbd
00000070: d124 febb 8867 503d d058 dd3d 1b5f 863d
00000080: 8e25 b33d 3ebf 14bd 2417 f7bd e1dc 73bc
00000090: ef7b c53d 79c5 943d ad45 243d f7ec adbd
000000a0: cd7c c7bc 0919 423d 179b 0e3e aae6 1ebe
000000b0: aa02 c83c 1b13 a7bc 989b 8a3d f0bb 273d
000000c0: 310b 013e b532 e8bd 9780 633d f4b3 7fbd
000000d0: 94ec 463d f89a 553d dd64 87bd 1f30 043e
000000e0: de99 fcbc e254 6bbc 9f60 53bd b691 dc3d
000000f0: d534 2abe 4ea3 82bb 0443 993d 0151 293d
00000100: 2c68 05be 2ef7 063c d35c a3bd da54 cebc
00000110: cb74 6abc 9a72 153e be9b 10be 2914 a03d
00000120: 5b50 193e 16cd 87bc b9b8 1b3d 966e 1bbb
00000130: e2c1 bdbd a49c 2fbd 50d4 8e3d 83d2 a1bd
00000140: 0ab4 be3d b2f9 413d 7c71 d43d e3a8 c23c
00000150: 2157 83bd a7c4 3dbd d854 59bd 486a 3ebd
00000160: aad6 17bc 12d6 b83c 9432 073c a838 0f3d
00000170: 0bc8 e4bb 0a72 a1bd c988 ca3d dfc3 063e
00000180: 6d19 03be d7ba df3c e0f0 bbbd e613 cd3d
00000190: 3ef9 69bd f7c1 2dbd 4708 abbd f91d f3bc
000001a0: c652 fbbd 8ad7 dbbd 0748 f93d d686 553d
000001b0: 2417 b3bd da6d cdbc daa2 3a3e e04e 533d
000001c0: f336 383d 930c 583c 1e24 073e 41c9 65bd
000001d0: 416f e9bd a1f0 4bbd cd31 d1bd 8a15 c0bd
000001e0: 1b00 4ebd 0cc4 56bc 4890 44bc 9f9c d5bd
000001f0: 2ea3 cbbc 0c9a dbbc 1c7d 62bb 8e9f d53d
00000200: b9cc 61bc 1cd3 e13d 0492 27bd 435f a0ba
00000210: 15a7 23bc 3b55 3f3d b7c5 e73d 7d94 a4bc
00000220: 2b36 a7bc 9597 1cbc 4466 fe3c 013d 0e3d
00000230: 2f70 c73d 8283 37bc e81a 0ebe f557 aa3d
00000240: 40fa c13c 1848 903d 74c3 123b 4b1e babd
00000250: da52 fc3c 9e8e b4bc ef49 873d a4ae 6ebd
00000260: f3f4 91bc 874f 8d3d 59ae 34be 2bca 81bb
00000270: e789 8dbd ed69 abbd 190a ee3d 5fd0 a53c
00000280: 2cda 3ebe 22b9 fabc a7b3 b23c a6e1 ce3d
00000290: ddf0 843d edbd 9bbd f398 b3bd 2cb3 883d
000002a0: eb56 c63d 8f6b 94bc 0656 b03d ff3c c33d
000002b0: ca5b f0bd a189 04be e65d b53d 3d1d 0dbe
000002c0: d231 d33c 207d a73d 596b f93c 8f31 d83d
000002d0: 39a7 fa3d 932f 023d 0844 9bbc d5b9 df3d
000002e0: 4fa4 edbd 5567 ffbd e932 b73d 6116 993d
000002f0: 850b c5bd f953 0f3c 67fb f5ba 83de c63d
00000300: b942 78bc 050d 81bd e454 72bc 0b57 01bd
00000310: d101 0ebd 5c1f 493d d12d c93c 2bb1 2bbc
00000320: 738f 77bd 944d 3c3d c2f8 0f3d ed8f b43d
00000330: 82fe 34bd c507 483d 9ec7 06be 24ab 543d
00000340: 4a4b babd 4f46 bcbd ab2f 04be 2d8c ac3d
00000350: de53 f33c b458 0cbd ba5b 60bc a705 96bc
00000360: b47c 023d 379d 04be 4799 903d b803 45bd
00000370: 25e1 e03d 8d4e d73c 7716 b5bd ba42 cbbd
00000380: 5e03 32bd 2f8f cd3d b66d aabd 401f debc
00000390: 1807 05bd d725 35bd fc63 d03d 4b5c fd3b
000003a0: c669 0bbd 248b a3bd d6d8 b93c 215b 03be
000003b0: b7b5 dd3c b8c3 4fbd 4b59 293d 3bc4 763d
000003c0: 9f74 be3d 295d adbd 9598 383e 22c7 a33d
000003d0: c94b b93d bdcc aebc f593 9e3d db6f 8dbd
000003e0: 8c41 323d d42a 9fbd 911f 283d 7496 c83c
000003f0: 2aa0 f3bd aabe 8abc d0c4 f73d 3901 afbb

sequential/conv1d_1/Conv1D f4 [128, 1, 3, 128]
-0.06621534 0.003487479 -0.015839932 -0.055947702 -0.022554517 0.09674472 -0.052377526 -0.039289895
0.059943512 -0.051328547 0.069912225 -0.025133926 0.055333868 -0.12912968 -0.054115858 -0.010914848
0.10973386 -0.036642257 0.1405029 -0.024054663 -0.055614073 0.0054783886 -0.07990968 -0.09511028
0.008861549 0.041651215 0.058905773 -0.014235317 -0.07071949 0.057482444 0.109801546 -0.020122226
0.033634324 0.06490807 0.12680414 -0.10580226 0.00030566758 0.049791094 0.021941049 0.03318073
-0.02922282 0.08699561 -0.0023129769 0.02756184 -0.027296534 -0.09099756 0.034593917 -0.12727074
0.0053467113 0.05825009 0.014818478 -0.07592232 -0.049474783 -0.027484197 0.1267716 0.019263484
0.0626004 0.03903765 -0.03908219 0.04288551 0.034461632 0.055972494 0.06786892 -0.084466964
-0.12738548 0.07134724 -0.08190207 -0.10206258 -0.03100827 0.1446904 -0.069757335 -0.016437137
0.05914744 -0.07301819 0.1118838 -0.03379822 0.016396608 -0.006760041 -0.09758366 -0.109390184
-0.044895366 -0.02924894 -0.08420163 0.064170204 0.067173816 -0.039028663 -0.008046223 -0.026657872
0.0833445 -0.049036104 0.087804526 -0.06511022 -0.039363924 0.064643696 0.025470953 0.02612194
0.039418057 0.09277401 0.09790422 0.04731051 -0.038203903 -0.10638173 0.009633208 0.061387382
-0.056981996 0.002778838 0.004325508 0.023300564 -0.04128541 -0.02136354 -0.051259045 -0.0617774
0.0200019 -0.0102675725 -0.031428065 0.009861561 0.08247314 0.032397583 -0.06738014 -0.012756586
0.1317364 -0.019686196 0.083144166 -0.04867826 -0.01522827 0.026219342 0.08578112 0.014386002
-0.0120372735 0.017237624 0.03622914 -0.0026688476 0.038368277 -0.049306877 0.074351296 0.047862
0.04121976 -0.10696326 0.041105296 0.038621344 -0.035188295 -0.096471086 -0.08152666 0.023376625
0.039881736 -0.017579358 0.07041804 0.08785159 -0.044008195 0.01373745 -0.047859475 0.07104578
-0.09881957 -0.014164102 -0.047383975 -0.031717695 -0.031498477 -0.041600883 0.0071394476 -0.0031778628
-0.06888751 -0.0293738 0.03355324 -0.032277804 -0.06575827 0.09581064 0.015959175 -0.05294518
-0.020062983 0.09410273 0.058428824 -0.049623232 -0.05170348 -0.11655394 0.022958212 0.05155917
0.09254799 -0.06607299 -0.043324452 0.04174035 -0.006731915 0.0066425223 -0.02419042 -0.027017444
-0.03216186 -0.085709296 -0.04029728 -0.046465315 -0.061510686 0.079136506 -0.026568536 0.059973635
-0.09593633 -0.04266494 0.051420193 -0.09602185 -0.033313893 -0.05760687 0.10998168 0.0056919744
0.04162584 -0.017268797 0.010614556 0.017706968 -0.029535534 0.05293203 -0.025488123 -0.06578806
-0.06881114 0.06354301 0.04515689 0.04104604 -0.06038242 0.022721058 -0.031325832 -0.015706379
-0.08034615 0.08448302 0.040116493 -0.053003263 -0.098227225 -0.009222964 0.082787685 0.065232374
0.063006975 -0.009678064 -0.00047579996 -0.03639058 -0.11585566 -0.06764516 0.004437859 -0.04311141
-0.04634493 -0.024615131 0.03425589 0.050410062 0.031390347 0.014687399 0.05014306 0.08519474
0.036976546 -0.02590611 -0.069534495 0.030347364 0.0132221775 -0.0107232025 -0.05252267 -0.056503862
0.09438527 -0.011010304 0.028417788 0.13241811 -0.004007868 -0.04213482 0.061738122 -0.06519395
00000000: e89b 87bd 308e 643b bfc2 81bc 6b29 65bd
00000010: 40c4 b8bc 1922 c63d d189 56bd 71ee 20bd
00000020: 5487 753d e23d 52bd 242e 8f3d aae5 cdbc
00000030: c4a5 623d 923a 04be 97a8 5dbd 31d4 32bc
00000040: 25bc e03d 3116 16bd fedf 0f3e 490e c5bc
00000050: 95cb 63bd 0e84 b33b b0a7 a3bd 2ec9 c2bd
00000060: 0830 113c 779a 2a3d 2e47 713d 3f3b 69bc
00000070: 61d5 90bd b672 6b3d a2df e03d 5ed7 a4bc
00000080: 25c4 093d 86ee 843d f2d8 013e dbae d8bd
00000090: 0242 a039 bff1 4b3d b7bd b33c 84e8 073d
000000a0: b264 efbc c12a b23d 5095 17bb 5ec9 e13c
000000b0: fb9c dfbc ee5c babd 5ab2 0d3d 4353 02be
000000c0: 7733 af3b a597 6e3d 34c9 723c 297d 9bbd
000000d0: 12a6 4abd 8a26 e1bc 6ad0 013e 74ce 9d3c
000000e0: a334 803d f1e5 1f3d a514 20bd b7a8 2f3d
000000f0: a427 0d3d 6a43 653d dcfe 8a3d 04fd acbd
00000100: 5771 02be 801e 923d 46bc a7bd 3006 d1bd
00000110: 0e05 febc b829 143e efdc 8ebd 2da7 86bc
00000120: 9644 723d 908a 95bd 5523 e53d 0170 0abd
00000130: 2e52 863c 5683 ddbb f1d9 c7bd f607 e0bd
00000140: 34e4 37bd 799b efbc e771 acbd ab6b 833d
00000150: 6d92 893d 85dc 1fbd 4ed4 03bc 9c61 dabc
00000160: 85b0 aa3d 15da 48bd dcd2 b33d 8258 85bd
00000170: 113c 21bd ea63 843d 76a8 d03c aefd d53c
00000180: d474 213d 4d00 be3d 0282 c83d aac8 413d
00000190: b27b 1cbd aade d9bd 9ad4 1d3c 5671 7b3d
000001a0: f465 69bd 2a1d 363b febc 8d3b d3e0 be3c
000001b0: e41a 29bd 9702 afbc 01f5 51bd 4d0a 7dbd
000001c0: 06db a33c 5239 28bc b7ba 00bd 6292 213c
000001d0: ade7 a83d 54b3 043d 99fe 89bd 0001 51bc
000001e0: e8e5 063e f244 a1bc 7d47 aa3d db62 47bd
000001f0: fe7f 79bc f2c9 d63c 03ae af3d 44b3 6b3c
00000200: fc37 45bc eb35 8d3c 0265 143d d5e7 2ebb
00000210: 0e28 1d3d 02f6 49bd 7e45 983d f20a 443d
00000220: 0dd6 283d 8e0f dbbd 075e 283d 6a31 1e3d
00000230: 9a21 10bd a292 c5bd 73f7 a6bd 5680 bf3c
00000240: 085b 233d 9602 90bc 5537 903d 89eb b33d
00000250: f041 34bd 0b13 613c 4c08 44bd 7380 913d
00000260: ea61 cabd 8d10 68bc b315 42bd 6aea 01bd
00000270: 8c04 01bd b065 2abd 07f2 e93b b143 50bb
00000280: e514 8dbd 53a1 f0bc 1f6f 093d bb35 04bd
00000290: 46ac 86bd 5e38 c43d d1bc 823c 0cdd 58bd
000002a0: 205b a4bc efb8 c03d 1053 6f3d bb41 4bbd
000002b0: 07c7 53bd d5b3 eebd dc12 bc3c b52f 533d
000002c0: cd89 bd3d 4751 87bd fb74 31bd eef7 2a3d
000002d0: 6597 dcbb 84a9 d93b fd2a c6bc b053 ddbc
000002e0: 28bc 03bd 5b88 afbd c30e 25bd 6a52 3ebd
000002f0: a1f2 7bbd 5212 a23d 42a6 d9bc eaa6 753d
00000300: 447a c4bd 6fc1 2ebd fb9d 523d 1ba7 c4bd
00000310: 2674 08bd 2ef5 6bbd 133e e13d be83 ba3b
00000320: db7f 2a3d 4b77 8dbc ade8 2d3c 340e 913c
00000330: 81f4 f1bc 42cf 583d 78cc d0bc e4bb 86bd
00000340: dbec 8cbd d622 823d 6ef6 383d e41f 283d
00000350: 8e53 77bd 8321 ba3c 844f 00bd aaaa 80bc
00000360: 868c a4bd 6f05 ad3d 3151 243d f319 59bd
00000370: 5b2b c9bd ea1b 17bc 978c a93d 8d98 853d
00000380: cd09 813d be90 1ebc ca74 f9b9 4a0e 15bd
00000390: bb45 edbd 8c89 8abd 766b 913b 9795 30bd
000003a0: 2ed4 3dbd aca5 c9bc e74f 0c3d c87a 4e3d
000003b0: 2a93 003d 6ba3 703c cf62 4d3d 947a ae3d
000003c0: b874 173d 0d39 d4bc 1a68 8ebd 099b f83c
000003d0: d5a1 583c 5fb0 2fbc 0322 57bd 9870 67bd
000003e0: 104d c13d 9064 34bc 6ccc e83c 9d98 073e
000003f0: 6f54 83bb 9095 2cbd 1de1 7c3d 6884 85bd

sequential/batch_normalization/batchnorm/sub f4 [128]
-3.949745 1.5473886 -4.545508 2.755195 -0.4503332 2.2407088 3.684 -2.811871
3.446735 -1.8827515 -0.050750762 2.328278 2.486542 -2.7376924 2.176938 -2.7846107
1.96062 0.36584237 6.0163574 -0.31489635 1.878283 4.700922 -2.655396 0.19779143
-2.771091 -1.2754601 -1.771934 4.0884395 -3.9034219 0.22877473 7.1018276 -1.4853014
-4.812787 1.4453334 2.8314838 -3.5412593 -1.5150232 2.5167587 -3.0306053 1.9245185
-1.909971 2.2462614 -1.7091656 6.2366 -4.6928086 -5.1820135 0.07387379 1.3906877
-0.779696 3.0883121 1.0502212 -0.29129064 1.508201 -2.2076895 7.6986203 3.8641136
-1.5368057 -0.37943834 -3.9772701 1.9659828 2.801634 4.26168 3.1308265 -2.8041465
-3.660386 1.3106295 1.5614636 -1.5592358 -2.933922 6.2735047 1.0774167 -3.893306
1.7286271 -1.2238818 1.6786195 -0.036485076 0.99221164 0.69538593 2.060212 1.6660451
2.7354534 2.943493 0.87797725 -4.252257 -0.69258994 -1.6666824 3.559888 -2.1908305
-1.1449745 -4.4405255 1.7400217 3.6782637 0.10067178 2.6156726 3.779987 -1.6371561
-1.3781617 3.603267 4.1920495 1.8060657 -2.2564616 -3.3328 4.2703137 2.4504895
-0.1609014 -3.336957 1.2340636 3.9652257 -3.163055 -2.6918063 -2.569116 1.917949
2.4371107 6.478744 -4.59371 -3.20767 -0.94611585 -3.2520394 -2.4963586 -2.3134086
6.3425393 -1.0225372 3.6999862 1.9326272 2.0782015 3.3408659 5.2298746 0.9766537
00000000: 9fc8 7cc0 d410 c63f cd74 91c0 1d55 3040
00000010: 1392 e6be c667 0f40 a8c6 6b40 b2f5 33c0
00000020: 4e97 5c40 00fe f0bf 08e0 4fbd 8202 1540
00000030: 8123 1f40 5a36 2fc0 f452 0b40 1037 32c0
00000040: 99f5 fa3f b14f bb3e 0086 c040 183a a1be
00000050: 946b f03f f46d 9640 02f2 29c0 d689 4a3e
00000060: 8e59 31c0 4742 a3bf bcce e2bf 7fd4 8240
00000070: aad1 79c0 ec43 6a3e 2c42 e340 5b1e bebf
00000080: 5a02 9ac0 af00 b93f 0837 3540 fea3 62c0
00000090: 48ec c1bf 9312 2140 70f5 41c0 9f56 f63f
000000a0: ee79 f4bf bfc2 0f40 f0c5 dabf 3a92 c740
000000b0: 7d2b 96c0 0ed3 a5c0 244b 973d 0e02 b23f
000000c0: 289a 47bf e8a6 4540 a66d 863f 0c24 95be
000000d0: bb0c c13f c94a 0dc0 195b f640 a34d 7740
000000e0: 0db6 c4bf be45 c2be 988b 7ec0 53a5 fb3f
000000f0: f94d 3340 af5f 8840 765f 4840 2377 33c0
00000100: c443 6ac0 b5c2 a73f 0ade c73f 0a95 c7bf
00000110: 61c5 3bc0 8dc0 c840 cae8 893f ed2b 79c0
00000120: a743 dd3f 29a8 9cbf 01dd d63f 6071 15bd
00000130: 9501 7e3f d004 323f 83da 0340 f740 d53f
00000140: ab11 2f40 3062 3c40 1ec3 603f 7d12 88c0
00000150: 934d 31bf d955 d5bf 34d5 6340 9136 0cc0
00000160: 868e 92bf c918 8ec0 08b9 de3f ac68 6b40
00000170: 022d ce3d 2e67 2740 4feb 7140 558e d1bf
00000180: 9a67 b0bf ed9b 6640 4525 8640 292d e73f
00000190: de69 10c0 984c 55c0 69a6 8840 d2d4 1c40
000001a0: 56c3 24be b490 55c0 ccf5 9d3f 42c6 7d40
000001b0: 7e6f 4ac0 8e46 2cc0 666c 24c0 5a7f f53f
000001c0: 9ff9 1b40 df51 cf40 acff 92c0 774a 4dc0
000001d0: a634 72bf 6a21 50c0 57c4 1fc0 e30e 14c0
000001e0: 15f6 ca40 80e2 82bf 93cc 6c40 5460 f73f
000001f0: 4101 0540 bfd0 5540 225b a740 fa05 7a3f

sequential/batch_normalization/batchnorm/mul f4 [128]
25.193415 23.721134 19.45549 15.508346 25.563168 21.822247 21.778698 19.294006
19.293781 19.325111 27.268944 23.614674 22.704815 26.761385 25.662666 18.302618
22.664719 25.599638 19.882408 22.724617 24.924486 15.814513 23.890226 20.31143
20.113665 22.83453 26.006311 17.80084 16.958069 19.032684 25.46052 18.823948
23.230486 20.137169 22.427181 16.3003 24.429163 24.122808 18.620235 22.554853
22.072092 16.13335 20.201982 19.431816 13.408259 23.441187 22.879105 26.34707
19.255955 22.16391 24.62333 19.648441 22.967995 24.223724 25.112785 24.290087
20.043344 20.466415 22.251545 21.835798 23.950825 19.207888 20.394623 20.933392
22.068102 17.854662 14.715128 25.547567 26.939266 23.576534 26.49671 21.123287
24.508347 22.31813 16.136616 26.284737 24.276772 20.25883 22.378042 26.821594
24.938728 20.01533 21.185408 25.401356 21.405428 23.056704 19.68186 19.196447
21.173761 22.650036 22.518492 21.009756 21.567717 20.189613 20.512175 23.363173
21.632671 25.30434 21.142937 22.362488 23.92674 20.73106 23.143362 22.056501
23.268473 19.242207 26.58909 14.238645 21.840128 19.240564 23.78861 19.281775
13.495478 21.931553 24.214556 23.30379 25.06524 16.347095 21.178411 17.650776
21.892952 21.699509 23.544098 28.780977 18.27589 18.595327 17.398092 25.318876
00000000: 1d8c c941 e2c4 bd41 d8a4 9b41 2f22 7841
00000010: 5e81 cc41 f693 ae41 c63a ae41 205a 9a41
00000020: aa59 9a41 d499 9a41 cc26 da41 daea bc41
00000030: 76a3 b541 5117 d641 244d cd41 c36b 9241
00000040: 5851 b541 0fcc cc41 2c0f 9f41 04cc b541
00000050: 5965 c741 3f08 7d41 2f1f bf41 cf7d a241
00000060: c9e8 a041 1ead b641 ed0c d041 1f68 8e41
00000070: 20aa 8741 f042 9841 25af cb41 7297 9641
00000080: 09d8 b941 ec18 a141 de6a b341 0467 8241
00000090: ed6e c341 83fb c041 3ef6 9441 5770 b441
000000a0: a593 b041 1a11 8141 a99d a141 5c74 9b41
000000b0: 3b88 5641 8d87 bb41 6808 b741 cdc6 d241
000000c0: 320c 9a41 b04f b141 94fc c441 0230 9d41
000000d0: 74be b741 30ca c141 fce6 c841 1952 c241
000000e0: c558 a041 38bb a341 2a03 b241 b7af ae41
000000f0: 4a9b bf41 c1a9 9941 3028 a341 9677 a741
00000100: 798b b041 59d6 8e41 2a71 6b41 6b61 cc41
00000110: 9e83 d741 be9c bc41 43f9 d341 7efc a841
00000120: 1811 c441 888b b241 ca17 8141 2447 d241
00000130: d436 c241 1512 a241 3b06 b341 a092 d641
00000140: 8482 c741 651f a041 b77b a941 fa35 cb41
00000150: 513e ab41 2174 b841 7374 9d41 5392 9941
00000160: dd63 a941 4633 b541 df25 b441 fb13 a841
00000170: af8a ac41 5484 a141 ef18 a441 c7e7 ba41
00000180: b60f ad41 4a6f ca41 bc24 a941 60e6 b241
00000190: f769 bf41 36d9 a541 9b25 b941 b773 b041
000001a0: d525 ba41 0af0 9941 75b6 d441 7dd1 6341
000001b0: 95b8 ae41 adec 9941 134f be41 1341 9a41
000001c0: 7aed 5741 d273 af41 69b7 c141 296e ba41
000001d0: 9d85 c841 dac6 8241 636d a941 ca34 8d41
000001e0: c424 af41 9898 ad41 505a bc41 713f e641
000001f0: 0635 9241 3bc3 9441 4b2f 8b41 0f8d ca41

sequential/batch_normalization_1/batchnorm/sub f4 [128]
0.29661536 -0.049348883 0.18360096 0.07973555 0.10353408 -0.51035404 0.14560981 -0.03113439
0.15071954 0.055830847 -0.15982062 -0.03206413 -0.27101645 0.19911379 0.021818753 -0.36053595
0.09598502 0.3415758 -0.06836308 0.078553304 -0.25836304 0.35735586 -0.020988492 0.039514337
0.035842165 0.20692547 0.11397126 0.17605926 0.13384491 -0.24627028 -0.17811479 -0.3129514
-0.08013116 -0.20052996 -0.7094386 0.24862228 -0.020268515 0.030435603 0.30322793 0.092796616
-0.42765298 -0.26055875 -0.15361854 -0.112934045 0.119421154 -0.0733458 0.11006429 -0.06906836
0.5982339 0.020056356 -0.40443802 0.15960366 -0.29674962 -0.015457248 -0.29406518 -0.014576264
-0.052392345 -0.030905869 -0.33725616 -0.22725406 -0.22016235 -0.23969525 -0.22588088 -0.7360168
-0.26621395 -0.10457818 -0.06364645 0.030377842 -0.120072246 -0.09208688 0.35208434 0.002048432
-0.019630142 0.15930133 0.27971694 0.21385045 0.024721064 -0.21459243 0.32210284 -0.009953992
-0.04421849 0.13999335 -0.7793526 0.01566153 -0.21950923 0.3646129 -0.3131307 -0.47539327
-0.33926284 -0.34854752 0.03882154 0.037973408 -0.29269922 0.23646177 -0.0068261195 -0.07214364
0.034078486 0.08049416 0.68173397 -0.10595421 0.43018758 -0.04636345 0.0692481 -0.22139844
-0.16487217 -0.40252542 -0.17164838 -0.047938935 -0.24161929 0.08321044 -0.07118495 0.12794915
-0.09956196 0.0668993 -0.082538605 -0.2796515 -0.09204872 0.30263227 0.18546464 0.32600832
0.04361874 0.054333452 -0.12162919 -0.22750393 0.102466166 0.020602502 -0.115788594 -0.13909718
00000000: f8dd 973e 0e22 4abd e401 3c3e 644c a33d
00000010: ad09 d43d 90a6 02bf bd1a 153e 8c0d ffbc
00000020: 3956 1a3e e3ae 643d 04a8 23be ad55 03bd
00000030: abc2 8abe 7ce4 4b3e 3ebd b23c 2b98 b8be
00000040: cb93 c43d 06e3 ae3e f101 8cbd 8ee0 a03d
00000050: 2948 84be 59f7 b63e 0ff0 abbc c9d9 213d
00000060: 3ccf 123d 45e4 533e c469 e93d e148 343e
00000070: a40e 093e 472e 7cbe b963 36be 2a3b a0be
00000080: ce1b a4bd ba57 4dbe c59d 35bf d796 7e3e
00000090: 280a a6bc 1654 f93c b140 9b3e 270c be3d
000000a0: 55f5 dabe f567 85be 2e4e 1dbe f749 e7bd
000000b0: 1493 f43d 5336 96bd 6369 e13d b673 8dbd
000000c0: db25 193f 3a4d a43c 8012 cfbe 246f 233e
000000d0: 91ef 97be 6640 7dbc b68f 96be 48d1 6ebc
000000e0: 5b99 56bd 4e2e fdbc d7ac acbe 4ab5 68be
000000f0: 3d72 61be ac72 75be 514d 67be 996b 3cbf
00000100: 324d 88be 162d d6bd 1259 82bd f4da f83c
00000110: 70e8 f5bd 0c98 bcbd 6644 b43e fc3e 063b
00000120: 64cf a0bc e31f 233e 0f37 8f3e 9dfb 5a3e
00000130: d483 ca3c 1ebe 5bbe aaea a43e 1216 23bc
00000140: 731e 35bd 6b5a 0f3e a783 47bf 9c4c 803c
00000150: 07c7 60be 8bae ba3e ab52 a0be bf66 f3be
00000160: dcb3 adbe d274 b2be 5603 1f3d 018a 1b3d
00000170: acdc 95be 0923 723e a4ad dfbb 0bc0 93bd
00000180: e295 0b3d 1fda a43d 1e86 2e3f 85fe d8bd
00000190: 8c41 dc3e 9ae7 3dbd f3d1 8d3d 46b6 62be
000001a0: 40d4 28be d017 cebe 98c4 2fbe 9e5b 44bd
000001b0: 0c6b 77be 3c6a aa3d 6ac9 91bd 1a05 033e
000001c0: 24e7 cbbd 8002 893d 000a a9bd 7b2e 8fbe
000001d0: 0a84 bcbd 9ef2 9a3e 71ea 3d3e 90ea a63e
000001e0: 90a9 323d c18c 5e3d ba18 f9bd caf6 68be
000001f0: c8d9 d13d 94c6 a83c 9222 edbd 7e6f 0ebe

sequential/batch_normalization_1/batchnorm/mul f4 [128]
1.474989 1.4150374 1.3976642 1.3925827 1.5147687 1.8673121 1.4607425 1.5894614
1.4858868 1.463276 1.3486121 1.279807 1.517287 1.5402758 1.3735957 1.6200528
1.3673695 1.7048672 1.3840122 1.4284443 1.4444442 1.4808444 1.2994738 1.5355314
1.5183241 1.3904843 1.6126052 1.348523 1.4246719 1.4532121 1.4891632 1.7657679
1.3710153 1.5707525 1.9051542 1.4011885 1.1936024 1.3597136 1.6077667 1.5344958
1.5896932 1.5753362 1.6178409 1.3648578 1.4605138 1.384579 1.5184727 1.3827599
1.8795127 1.3960205 1.5101855 1.4927448 1.4192902 1.4007885 1.4527816 1.4044374
1.4377289 1.3768715 1.5002745 1.3306193 1.5399122 1.5369622 1.5009247 2.145304
1.3163623 1.2732463 1.3659854 1.6995131 1.4163747 1.4758449 1.469649 1.4816749
1.4490803 1.4359972 1.5861824 1.4466257 1.4769257 1.3477037 1.4003445 1.456496
1.2887048 1.36436 2.150858 1.4694215 1.4662924 1.6315608 1.6052961 1.6598622
1.3910574 1.5161588 1.4267533 1.4174342 1.4050095 1.4990517 1.4752134 1.2892045
1.2874973 1.4275873 1.7620038 1.4710637 1.5370517 1.6386133 1.4629091 1.5705099
1.3084195 1.663544 1.5867714 1.4065853 1.4953504 1.3658242 1.4373815 1.4557791
1.3197618 1.5726899 1.45683 1.456292 1.444743 1.344409 1.4285176 1.4387382
1.421159 1.322863 1.2587106 1.4486529 1.3316823 1.4997611 1.510705 1.4369489
00000000: 71cc bc3f f21f b53f a9e6 b23f 2640 b23f
00000010: f1e3 c13f 1504 ef3f 9cf9 ba3f 7973 cb3f
00000020: 8a31 be3f a14c bb3f 529f ac3f b7d0 a33f
00000030: 7636 c23f c227 c53f fcd1 af3f e45d cf3f
00000040: f705 af3f 1739 da3f 5027 b13f 43d7 b63f
00000050: 8ce3 b83f 4f8c bd3f 2855 a63f 4b8c c43f
00000060: 7258 c23f 64fb b13f d969 ce3f 679c ac3f
00000070: a65b b63f db02 ba3f e69c be3f af04 e23f
00000080: 6e7d af3f 6b0e c93f 18dc f33f 255a b33f
00000090: f7c7 983f 180b ae3f 4dcb cd3f 5c6a c43f
000000a0: 117b cb3f 9ea4 c93f 6915 cf3f a9b3 ae3f
000000b0: 1ef2 ba3f e239 b13f 505d c23f 47fe b03f
000000c0: df93 f03f cdb0 b23f c24d c13f 4312 bf3f
000000d0: 4dab b53f 0a4d b33f bff4 b93f 9bc4 b33f
000000e0: 8007 b83f 533d b03f ff08 c03f bc51 aa3f
000000f0: d81b c53f 2dbb c43f 4d1e c03f a94c 0940
00000100: 8f7e a83f bcf9 a23f 9cd8 ae3f a589 d93f
00000110: c44b b53f 7ce8 bc3f 751d bc3f 86a7 bd3f
00000120: 777b b93f c2ce b73f 0608 cb3f 082b b93f
00000130: e70b bd3f 8e81 ac3f 7d3e b33f 766e ba3f
00000140: 47f4 a43f 59a3 ae3f a8a7 0940 0116 bc3f
00000150: 78af bb3f fcd6 d03f 587a cd3f 5d76 d43f
00000160: 2b0e b23f 7e11 c23f da9f b63f 7c6e b53f
00000170: 5ad7 b33f ede0 bf3f cbd3 bc3f a704 a53f
00000180: b6cc a43f 2ebb b63f 5789 e13f d14b bc3f
00000190: 1cbe c43f 15be d13f 9b40 bb3f 7806 c93f
000001a0: 4a7a a73f 03ef d43f 531b cb3f fd0a b43f
000001b0: a467 bf3f 54d3 ae3f 1efc b73f f856 ba3f
000001c0: f4ed a83f e74d c93f 6879 ba3f c767 ba3f
000001d0: 57ed b83f 9815 ac3f aad9 b63f 9328 b83f
000001e0: 8ae8 b53f 9353 a93f 6e1d a13f 756d b93f
000001f0: 9174 aa3f 2cf8 bf3f c85e c13f f1ed b73f

sequential/lstm/Read_2/ReadVariableOp f4 [512]
0.026904907 0.02965753 -0.027000446 0.014317444 -0.051503345 -0.010367716 0.019354306 -0.014406945
0.015427301 0.034975078 0.0026979172 0.03340194 -0.020686088 -0.01923421 -0.004771461 -3.3366814e-05
0.048810776 0.036283348 0.004896365 -0.046683833 0.00961544 0.0040232423 0.013834146 -0.012398087
-0.020892158 0.01693169 -0.073943 -0.0070611057 -0.057224687 0.04736804 0.001783498 0.0049028983
-0.013168487 0.016820503 0.039633133 0.007360846 -0.016206985 -0.009813804 0.04963445 0.02797087
0.0009814061 -0.032581534 -0.04982094 0.014847648 0.053823847 0.010269226 -0.013620326 -0.028412385
0.019982899 0.008083097 -0.02152323 0.015375941 0.025303999 -0.007530588 0.023658093 0.013654014
-0.028250221 0.022507692 -0.030917117 -0.021172317 0.01816738 0.011890575 -0.02040271 0.017891785
0.033249576 -0.0037136353 0.01563706 0.03344281 -0.000808595 0.03557838 -0.028172592 -0.020104535
-0.024728788 -0.017124966 0.021144042 0.051272675 -0.010440565 -0.027435899 0.012129799 0.01005877
0.015555696 -0.0076177632 -0.024602273 0.02335512 0.0013777858 0.07235199 -0.0007973273 0.00011741495
0.04623508 -0.0076500857 0.01320212 0.014534809 0.0069460683 -0.037925474 -0.041970033 -0.034053
0.04506397 0.014787764 -0.013357169 0.025850546 0.009550789 -0.003125381 0.038643267 0.012862073
-0.017266687 0.014368923 -0.024764488 0.010801103 0.033003647 -0.0129581075 0.014179985 0.008953558
0.03664005 -0.008574659 0.032986816 -0.008918398 -0.015827294 0.06667455 0.042361736 0.027893675
-0.001532526 -0.002469473 0.010331856 -0.003553388 -0.009534773 -0.026762398 0.019516502 0.013089978
1.0363756 0.9999553 0.987711 0.9983471 0.94041264 1.013349 1.0030197 0.96857595
0.9679924 1.0016057 1.0223783 0.9997469 1.0044984 1.0228595 1.0245652 1.0042624
0.9739208 0.9762339 1.0024678 0.9721562 0.99481684 1.0318222 0.9834545 1.0317411
0.98591083 1.029535 0.9942071 0.9651373 0.96143824 1.0620224 0.9958935 0.9631121
0.9745845 0.95884514 1.0125022 0.9813479 1.0107915 1.0227041 1.0012382 0.9646019
1.0069116 0.94970816 0.99253225 0.9751271 1.0043393 0.9704169 0.98582065 0.97924453
1.0090975 1.0077394 1.000821 1.0006615 0.999245 0.9914512 0.96688515 1.0435231
1.0172768 1.0368307 0.979237 0.9812121 1.0489705 1.0092212 0.98341244 1.0364788
1.0045874 1.0169047 1.0251483 1.0442256 0.9982656 1.0573303 0.9698814 1.01523
0.9799775 0.9682711 1.0380069 0.99270153 1.0426661 0.96160585 0.98654926 0.95578927
1.0070921 0.9870975 0.9872646 0.99366224 0.99779254 1.0336579 1.0422802 0.9796599
1.0234638 0.9678611 1.0045367 1.0310432 1.0498883 0.99510175 0.9442897 0.9728367
0.9437245 1.0117973 0.96821415 1.0137876 0.96780527 1.0210465 0.98361826 0.9438098
0.988654 1.014037 1.0025443 0.9528467 0.99700123 0.96270365 1.0066464 0.976768
1.0308108 1.0343044 1.0007793 1.0006511 0.9848902 1.0272931 0.9997256 1.0267928
0.970477 0.9935607 0.9863991 1.0019441 0.9565212 0.9982039 0.99048245 1.0173682
00000000: ae67 dc3c 59f4 f23c 0a30 ddbc b693 6a3c
00000010: 2cf5 52bd 5add 29bc ec8c 9e3c 1b0b 6cbc
00000020: cac2 7c3c 0742 0f3d 8acf 303b 79d0 083d
00000030: df75 a9bc 1091 9dbc ea59 9cbb 58f3 0bb8
00000040: cfed 473d d99d 143d b071 a03b 8c37 3fbd
00000050: 148a 1d3c 67d5 833b 9da8 623c 5921 4bbc
00000060: 0826 abbc 54b4 8a3c 6d6f 97bd d960 e7bb
00000070: 6f64 6abd fd04 423d 43c4 e93a 7ea8 a03b
00000080: a3c0 57bc 27cb 893c 5a56 223d 4033 f13b
00000090: 83c4 84bc 14ca 20bc 7e4d 4b3d 2a23 e53c
000000a0: 86a2 803a 3774 05bd 0b11 4cbd 8d43 733c
000000b0: 6576 5c3d 4140 283c ca27 5fbc 17c1 e8bc
000000c0: 2db3 a33c f76e 043c 7c51 b0bc 5feb 7b3c
000000d0: 554a cf3c 27c3 f6bb 9ece c13c 16b5 5f3c
000000e0: 026d e7bc 0d62 b83c e545 fdbc 9171 adbc
000000f0: c2d3 943c b0d0 423c 9623 a7bc cb91 923c
00000100: b530 083d 7660 73bb 4b19 803c 54fb 083d
00000110: e4f7 53ba a3ba 113d 35ca e6bc 44b2 a4bc
00000120: 0794 cabc a849 8cbc 4536 ad3c 4c03 523d
00000130: e70e 2bbc 40c1 e0bc 11bc 463c 8acd 243c
00000140: 51dd 7e3c 6e9e f9bb b58a c9bc 3d53 bf3c
00000150: d296 b43a 482d 943d bb03 51ba ac3c f638
00000160: ff60 3d3d 92ad fabb b44d 583c 6823 6e3c
00000170: d89b e33b be57 1bbd c5e8 2bbd 297b 0bbd
00000180: ff94 383d 6148 723c 07d8 5abc 86c4 d33c
00000190: ea7a 1c3c 31d3 4cbb 6748 1e3d 72bb 523c
000001a0: de72 8dbc a26b 6b3c e5de cabc 1cf7 303c
000001b0: d52e 073d 3e4e 54bc 2b53 683c f2b1 123c
000001c0: e113 163d ba7c 0cbc 2f1d 073d 791e 12bc
000001d0: 3ea8 81bc ab8c 883d 8083 2d3d 4781 e43c
000001e0: 0adf c8ba e2d6 21bb f246 293c f5df 68bb
000001f0: bd37 1cbc d13c dbbc 12e1 9f3c 5977 563c
00000200: f5a7 843f 12fd 7f3f a1da 7c3f ad93 7f3f
00000210: e2be 703f 6cb5 813f f362 803f 98f4 773f
00000220: 5ace 773f 9e34 803f 4bdd 823f 6aef 7f3f
00000230: 6793 803f 0fed 823f f424 833f ac8b 803f
00000240: e052 793f 77ea 793f dd50 803f 3bdf 783f
00000250: 51ac 7e3f c012 843f adc3 7b3f 1810 843f
00000260: a764 7c3f cec7 833f 5b84 7e3f 3d13 773f
00000270: d120 763f 5af0 873f e0f2 7e3f 848e 763f
00000280: 5f7e 793f e076 753f ac99 813f 9e39 7b3f
00000290: 9e61 813f f8e7 823f 9328 803f 26f0 763f
000002a0: 7be2 803f 1320 733f 9816 7e3f eea1 793f
000002b0: 318e 803f 3e6d 783f be5e 7c3f c5af 7a3f
000002c0: 1b2a 813f 9bfd 803f e71a 803f ad15 803f
000002d0: 85ce 7f3f bfcf 7d3f c985 773f 2a92 853f
000002e0: 2036 823f deb6 843f 47af 7a3f b730 7b3f
000002f0: aa44 863f 292e 813f ebc0 7b3f 56ab 843f
00000300: 5296 803f ef29 823f 0f38 833f 2fa9 853f
00000310: 568e 7f3f 9956 873f 264a 783f 0ef3 813f
00000320: cedf 7a3f 9de0 773f 69dd 843f b021 7e3f
00000330: 1576 853f cd2b 763f 7e8e 7c3f 9bae 743f
00000340: 65e8 803f 6cb2 7c3f 5fbd 7c3f a660 7e3f
00000350: 556f 7f3f e74e 843f 7069 853f feca 7a3f
00000360: dd00 833f bfc5 773f a994 803f 39f9 833f
00000370: bd62 863f fdbe 7e3f f8bc 713f d30b 793f
00000380: ee97 713f 9382 813f e2dc 773f cbc3 813f
00000390: 16c2 773f a7b1 823f 68ce 7b3f 859d 713f
000003a0: 6e18 7d3f f7cb 813f 5f53 803f c3ed 733f
000003b0: 793b 7f3f bf73 763f cad9 803f 780d 7a3f
000003c0: 9cf1 833f 1664 843f 8919 803f 5615 803f
000003d0: c421 7c3f 577e 833f 04ee 7f3f f26d 833f
000003e0: 2e71 783f fe59 7e3f a784 7c3f b43f 803f
000003f0: 93de 743f 4a8a 7f3f 4290 7d3f 1f39 823f

sequential/lstm_1/Read_2/ReadVariableOp f4 [80]
0.06859699 0.07032423 0.04024495 0.03717614 0.06216306 0.05862705 0.078406475 0.06994694
0.055191293 0.04429245 0.034399748 0.031714972 0.016148841 0.05377528 0.06785252 0.08414862
0.021409396 0.005635095 0.032543283 0.051131617 0.9813374 0.9680143 0.9730994 0.9946063
1.0033418 0.9683997 1.04988 0.94711417 1.0126834 0.98138905 0.98214257 0.9967191
1.0330571 1.0113803 0.9845806 0.9502519 0.9521094 0.9775967 0.97979456 0.9879017
-0.014148855 -0.009867807 0.01878922 -0.024381636 5.318951e-05 0.0045786295 -0.044400014 -0.009582986
-0.021479031 0.004078008 0.032885984 0.010289465 0.006864257 0.015428418 0.024789196 -0.0105396835
0.0007743421 -0.005780105 -0.017708113 -0.013134015 0.11204189 0.101910464 0.061817586 0.02562805
0.0439206 0.053921584 0.06330013 0.09302283 0.08558348 0.060579833 0.062342927 0.05665471
0.04816369 0.03136216 0.10287403 0.12172666 0.048779283 -0.006129219 0.06097484 0.062287636
00000000: 947c 8c3d 2606 903d e4d7 243d 0246 183d
00000010: b19e 7e3d eb22 703d 9393 a03d 5740 8f3d
00000020: 4410 623d 006c 353d c0e6 0c3d 8fe7 013d
00000030: 934a 843c 7843 5c3d 43f6 8a3d 1d56 ac3d
00000040: c262 af3c 9aa6 b83b 1b4c 053d 636f 513d
00000050: ee38 7b3f c9cf 773f 0b1d 793f 859e 7e3f
00000060: 816d 803f 0be9 773f 7862 863f 1376 723f
00000070: 9c9f 813f 503c 7b3f b26d 7b3f fc28 7f3f
00000080: 373b 843f e974 813f 790d 7c3f b543 733f
00000090: 71bd 733f c743 7a3f d1d3 7a3f 20e7 7c3f
000000a0: 99d0 67bc 95ac 21bc daeb 993c ffbb c7bc
000000b0: cd17 5f38 5408 963b cadc 35bd f501 1dbc
000000c0: cbf4 afbc cfa0 853b 74b3 063d 2595 283c
000000d0: 90ed e03b 7ac7 7c3c b612 cb3c a3ae 2cbc
000000e0: 38fd 4a3a 0967 bdbb 9b10 91bc 0d30 57bc
000000f0: 3876 e53d 6fb6 d03d 7034 7d3d ebf1 d13c
00000100: 16e6 333d e1dc 5c3d 80a3 813d c182 be3d
00000110: 6446 af3d 8f22 783d 4c5b 7f3d c50e 683d
00000120: 4a47 453d 9c75 003d 9faf d23d d44b f93d
00000130: c9cc 473d 9ed7 c8bb c1c0 793d 5221 7f3d

sequential/dense/BiasAdd/ReadVariableOp f4 [100]
0.043426372 0.017585272 0.025156127 0.009354826 -0.025839373 0.107840635 0.050198153 0.044157006
0.03848738 0.09555163 0.023874728 0.07477556 -0.006105452 0.099420995 0.09174249 0.04356071
0.10805969 0.018329566 -0.0072083347 -0.0029675143 0.010682131 0.007523544 0.048652027 0.022930527
0.03932439 -0.005378224 0.07739138 0.030048655 0.021647802 0.058520094 -0.05022118 0.022481991
0.04555002 0.056463584 -0.010086723 0.0514606 -0.026060447 -0.007736951 0.06858462 0.013068557
0.039346073 0.011766083 0.045549653 0.05498674 0.033748467 0.049093895 0.04748452 -0.031195762
0.026209358 0.12876897 0.07267608 -0.0009677593 0.07140236 0.0426527 0.045029882 -0.00427096
0.017736139 0.02777975 0.008959916 0.08755096 0.032494266 0.005552916 0.05346098 0.03098409
0.11845948 0.0022587797 0.03127596 0.060151815 0.0034750535 0.061440755 0.05054597 0.02458326
0.026511805 0.0145633165 0.044270653 0.027296947 0.10563161 -0.0059366077 0.09058608 -0.015765324
0.16006418 0.006318322 0.109386854 0.007891676 0.012116917 0.042151935 0.046962846 0.08050251
-0.009373518 0.039288677 0.046870656 0.047377493 -0.027320331 0.043711215 0.0054312684 0.10002782
0.022297107 0.051648226 0.06763832 0.033203486
00000000: dadf 313d fd0e 903c 3914 ce3c fc44 193c
00000010: 18ad d3bc 8ddb dc3d 949c 4d3d fadd 343d
00000020: f1a4 1d3d 93b0 c33d ef94 c33c ee23 993d
00000030: 3e10 c8bb 3c9d cb3d 7de3 bb3d b76c 323d
00000040: 664e dd3d e327 963c e533 ecbb a17a 42bb
00000050: 1b04 2f3c 1088 f63b 5947 473d cdd8 bb3c
00000060: 9d12 213d d03b b0bb 5f7f 9e3d 9928 f63c
00000070: bb56 b13c c4b2 6f3d b9b4 4dbd 272c b83c
00000080: a892 3a3d 5c46 673d c842 25bc 5ac8 523d
00000090: b87c d5bc 4086 fdbb 1876 8c3d 801d 563c
000000a0: 5929 213d 87c6 403c 4692 3a3d c739 613d
000000b0: d53b 0a3d ae16 493d 217f 423d 418e ffbc
000000c0: 02b5 d63c 03dc 033e 32d7 943d 3ab1 7dba
000000d0: 673b 923d 99b4 2e3d 4171 383d 69f3 8bbb
000000e0: 614b 913c 5c92 e33c 9dcc 123c eb4d b33d
000000f0: b518 053d 3cf5 b53b e7f9 5a3d 59d2 fd3c
00000100: e29a f23d 0908 143b 391b 003d c061 763d
00000110: b9bd 633b 4da9 7b3d 4b09 4f3d d562 c93c
00000120: 492f d93c fa9a 6e3c 2555 353d d99d df3c
00000130: 6355 d83d e087 c2bb 3285 b93d 4826 81bc
00000140: dde7 233e ed09 cf3b 3706 e03d 174c 013c
00000150: 0986 463c 82a7 2c3d 1d5c 403d 80de a43d
00000160: 6293 19bc 2aed 203d 72fb 3f3d e70e 423d
00000170: e3ce dfbc 880a 333d c8f8 b13b 63db cc3d
00000180: 6ca8 b63c 178d 533d f685 8a3d 6100 083d

sequential/dense_1/BiasAdd/ReadVariableOp f4 [3]
-0.037831165 0.01023332 0.028909212
00000000: daf4 1abd a8a9 273c 03d3 ec3c

sequential/dense/MatMul f4 [100, 20]
-0.21432765 0.065589376 0.1705154 0.029629907 0.12533556 0.0008842455 -0.030797938 -0.026567608
0.06219904 -0.0560971 -0.031516623 -0.029867982 0.20370927 0.11814052 0.28354353 -0.18208912
0.15577978 0.07635667 -0.028506882 0.24108914 0.18726219 -0.22833008 -0.15686622 0.16808678
-0.0026881786 -0.15223098 0.16937642 -0.12105761 -0.011864116 0.047320526 0.24544683 -0.054258086
0.007844905 0.012902913 -0.123431206 0.2691024 0.15912804 0.09014003 -0.034518823 -0.21631308
-0.1369622 0.12829801 -0.2522814 0.20356765 0.16703959 -0.14975429 0.0748544 0.08794818
-0.08721941 0.08841212 -0.046300843 -0.078885615 0.18037781 0.020335052 -0.0744755 -0.10232837
0.24296159 -0.25223336 0.025542505 -0.1728786 -0.18232897 -0.038244177 -0.18695144 -0.14538981
0.20072946 0.07562822 0.22939827 0.18106617 -0.123566434 -0.18469927 -0.15915489 0.031122826
0.17785345 -0.24014767 -0.045853145 0.077234104 0.11881929 -0.18676122 -0.11050227 0.15441078
-0.11908519 0.113696076 0.15407814 0.021501094 0.034436118 -0.11483581 -0.09287845 0.029073613
0.10425091 0.14492273 -0.1526489 0.20133641 0.23027629 0.100846365 -0.21759018 0.07265168
-0.15100417 -0.19484483 0.030957611 0.10903314 -0.046737272 -0.020654941 0.05450289 -0.12526175
-0.26773465 0.06812629 -0.18736832 -0.012209833 -0.26909763 0.10732278 -0.15466599 -0.15191923
-0.21165197 -0.038924467 0.02961834 -0.030402312 -0.100005046 0.1650349 -0.25029382 -0.19098477
-0.22466476 -0.12678829 -0.26588258 0.13045304 -0.074708804 0.15053977 -0.23672274 0.07292699
0.08914925 0.2519233 0.2439865 0.2536415 -0.21026614 0.17403047 0.18714961 0.31812304
-0.08578166 -0.24836376 -0.029693551 -0.23995516 -0.1989924 -0.17951572 -0.18533896 -0.1514015
0.08288644 0.034579698 -0.30579972 -0.04674454 0.14651734 0.21037391 0.098094285 -0.118594915
-0.08995523 0.059708208 -0.13347042 0.27169487 -0.28480136 -0.16964652 -0.02677001 -0.19573483
0.20398945 0.028024781 -0.12881745 0.07627093 0.24759367 -0.08790613 -0.048277855 0.30950236
-0.012010598 0.07403287 0.11849499 -0.06259698 0.24961369 -0.089031875 -0.18316929 -0.0657036
0.013044123 -0.15192136 -0.029990578 -0.14630194 -0.13148934 0.14490236 -0.16253312 -0.085792206
-0.29550457 0.03475269 -0.08949451 -0.17714888 -0.23169412 -0.16630532 -0.02663774 0.13310319
-0.15087122 0.07211131 0.27256888 0.002110173 -0.19333276 0.073168986 -0.11525656 -0.24993043
-0.18690608 0.0294296 -0.047203194 -0.06130068 -0.2469635 -0.09915618 -0.22379488 0.06551585
0.17521794 0.26724455 0.035835147 0.16875152 -0.16250944 0.2354863 -0.037520733 -0.04918923
0.14559169 -0.07027808 0.1832451 -0.046899945 -0.11281377 -0.2362446 -0.112221375 -0.24109514
-0.17199609 0.27225074 -0.13549736 -0.23602027 -0.18574068 -0.11535097 -0.014398585 0.06476146
-0.037941843 -0.14788038 -0.0846399 0.20042586 -0.24511504 0.05085719 -0.17584074 -0.1708786
0.26578873 -0.22411855 0.030289154 -0.09294973 0.15487966 -0.09633265 -0.009737358 0.08257421
-0.080757804 0.2344158 0.00924565 0.043689936 0.002031844 0.07848895 -0.09709919 0.10977424
00000000: b578 5bbe b953 863d 979b 2e3e 6bba f23c
00000010: f757 003e b6cc 673a f54b fcbc 50a4 d9bc
00000020: 6cc4 7e3d 13c6 65bd 9317 01bd b3ad f4bc
00000030: 2a99 503e a8f3 f13d 9e2c 913e 9275 3abe
00000040: bc84 1f3e e360 9c3d 4487 e9bc 12e0 763e
00000050: a9c1 3f3e 5ccf 69be 8aa1 20be f11e 2c3e
00000060: 272c 30bb 70e2 1bbe 0371 2d3e 0ded f7bd
00000070: b661 42bc 2bd3 413d 6a56 7b3e ba3d 5ebd
00000080: eb87 003c bd66 533c 80c9 fcbd cac7 893e
00000090: 76f2 223e 569b b83d 9c63 0dbd 2d81 5dbe
000000a0: d23f 0cbe 8e60 033e 072b 81be 0a74 503e
000000b0: 6d0c 2b3e 3059 19be 434d 993d 2d1e b43d
000000c0: 17a0 b2bd 6a11 b53d f4a5 3dbd c88e a1bd
000000d0: f6b4 383e b295 a63c 9c86 98bd 8991 d1bd
000000e0: ecca 783e bb24 81be 843e d13c 1607 31be
000000f0: 72b4 3abe eda5 1cbd 3370 3fbe 11e1 14be
00000100: 068c 4d3e f8e2 9a3d 61e7 6a3e 6969 393e
00000110: 6610 fdbd ce21 3dbe 80f9 22be 4cf5 fe3c
00000120: 371f 363e 45e9 75be 82d0 3bbd ea2c 9e3d
00000130: 8757 f33d 553e 3fbe 044f e2bd dc1d 1e3e
00000140: f0e2 f3bd 7dd9 e83d a9c6 1d3e 1023 b03c
00000150: e30c 0d3d 0a2f ebbd 0f37 bebd c92b ee3c
00000160: 8081 d53d a066 143e fe4f 1cbe 222b 4e3e
00000170: 8ccd 6b3e 8a88 ce3d f6cf 5ebe 67ca 943d
00000180: d6a0 1abe 6785 47be d19a fd3c c44c df3d
00000190: 956f 3fbd 8d34 a9bc 6c3e 5f3d 9e44 00be
000001a0: 8414 89be cc85 8b3d 7bdd 3fbe c00b 48bc
000001b0: 2ac7 89be 0ccc db3d c360 1ebe b790 1bbe
000001c0: 4bbb 58be 436f 1fbd 29a2 f23c 450e f9bc
000001d0: 72cf ccbd e9fe 283e 8326 80be 8391 43be
000001e0: 850e 66be cad4 01be c321 88be 7b95 053e
000001f0: ee00 99bd 1927 1a3e 7267 72be bf5a 953d
00000200: e293 b63d 17fc 803e 99d7 793e 4cdd 813e
00000210: 0250 57be 0b35 323e 26a4 3f3e 06e1 a23e
00000220: 4cae afbd 1253 7ebe e43f f3bc ceb6 75be
00000230: aac4 4bbe f8d2 37be 7fc9 3dbe ff08 1bbe
00000240: 5ec0 a93d 71a3 0d3d c891 9cbe 3477 3fbd
00000250: a408 163e 426c 573e a8e5 c83d e4e1 f2bd
00000260: 733a b8bd 9890 743d 78ac 08be 971b 8b3e
00000270: 7cd1 91be d1b7 2dbe c84c dbbc b66e 48be
00000280: 9ce2 503e 3a94 e53c b9e8 03be ef33 9c3d
00000290: 3289 7d3e 2108 b4bd 00bf 45bd 1877 9e3e
000002a0: 19c8 44bc 8c9e 973d 80ad f23d d832 80bd
000002b0: bb9a 7f3e 5856 b6bd bb90 3bbe 9c8f 86bd
000002c0: 04b7 553c 4691 1bbe cdae f5bc 2dd0 15be
000002d0: 24a5 06be 4961 143e 156f 26be d3b3 afbd
000002e0: 604c 97be d658 0e3d e648 b7bd 8466 35be
000002f0: 3941 6dbe f14b 2abe 6437 dabc 344c 083e
00000300: fc7d 1abe 18af 933d 268e 8b3e d44a 0a3b
00000310: 06f9 45be 9fd9 953d a20b ecbd c3ed 7fbe
00000320: 4f64 3fbe 5816 f13c 2358 41bd 6c16 7bbd
00000330: 00e4 7cbe 6512 cbbd 7c2a 65be 2d2d 863d
00000340: 556c 333e 47d4 883e e0c7 123d 33cd 2c3e
00000350: e068 26be 5223 713e 57af 19bd a57a 49bd
00000360: fd15 153e f4ed 8fbd 9aa4 3b3e 281a 40bd
00000370: e80a e7bd 1bea 71be 52d4 e5bd a5e1 76be
00000380: be1f 30be 7364 8b3e d2bf 0abe 4caf 71be
00000390: ce32 3ebe 213d ecbd 0be8 6bbc a8a1 843d
000003a0: e868 1bbd f46d 17be af57 adbd 703c 4d3e
000003b0: 70ff 7abe a14f 503d 980f 34be cdfa 2ebe
000003c0: 7615 883e 557f 65be f620 f83c 6e5c bebd
000003d0: c698 1e3e 0d4a c5bd 7189 1fbc ab1c a93d
000003e0: 5964 a5bd b20a 703e 117b 173c 38f4 323d
000003f0: b028 053b d1be a03d f1db c6bd 51d1 e03d
